Assets/ONNX/1P_PPO_Builtin.onnx (onnx, 423620 bytes, 6 tensors)

fc1.weight f4 [128, 50]
0	0x3dce9142	0.100862995
1	0x3d64e24b	0.055879872
2	0xbe049adf	-0.12949704
3	0x3db67f34	0.08910981
4	0x3cdde6ec	0.027087651
5	0xbd83a895	-0.06428639
6	0xbdd54e44	-0.104153186
7	0x3d169858	0.03676638
8	0xbdc90b3d	-0.09816597
9	0xbcef87ac	-0.029239498
10	0x3c7dad37	0.015483192
11	0x3dd8786c	0.10569844
12	0xbde22ce9	-0.11043722
13	0x3c08f3b8	0.008358888
14	0x3c6ec7e4	0.014574025
15	0xbc5e79b5	-0.013578822
16	0x3d15ba25	0.036554474
17	0xbddee3bb	-0.1088328
18	0xbdd7af26	-0.10531454
19	0xb9cc23c7	-0.00038936568
20	0x3d0b7e24	0.034055844
21	0xbd657dc0	-0.056028128
22	0xbdb606db	-0.08888026
23	0x3ba0ae05	0.0049035572
24	0x3d9b6bee	0.07588945
25	0xbdf01b30	-0.117239356
26	0xbd78ab60	-0.06071031
27	0x3de3f781	0.11131192
28	0x3d75175b	0.059836727
29	0x3d32913f	0.04359555
30	0x3da2f5d8	0.07957047
31	0x3c97ee5a	0.018546272
32	0x3d01084e	0.03150206
33	0xbb53c5fa	-0.0032314048
34	0xbdcd4fb4	-0.10024968
35	0xbe04a875	-0.12954886
36	0x3bb660b6	0.005565728
37	0x3acc5c2f	0.0015591438
38	0x3e11ab4f	0.14225505
39	0x3db906f9	0.09034533
40	0xbd80597b	-0.06267067
41	0xbd0a43ca	-0.033756055
42	0x3dc05174	0.09390536
43	0xbcd1413e	-0.025543805
44	0x3e0275b2	0.1274021
45	0xbda4a9bf	-0.08040189
46	0x3e0eecb1	0.13957478
47	0x3de84acd	0.11342392
48	0x3dea676f	0.1144551
49	0xbda37253	-0.0798079
50	0x3dc4faf8	0.09618181
51	0x3d9d876f	0.076918475
52	0xbda19899	-0.07890434
53	0xbdb039c9	-0.08604772
54	0x3decd0dc	0.11563274
55	0x3da5c9b1	0.0809511
56	0x3e02ee89	0.12786306
57	0xbcd55e66	-0.02604599
58	0x3dce9610	0.10087216
59	0x3dd2ccac	0.10292944
60	0x3be25864	0.0069075096
61	0xbdf380bf	-0.11889791
62	0x3c4e4c96	0.012591502
63	0x3d95b147	0.073092036
64	0x3cb34b10	0.021886379
65	0x3df1ebba	0.118125394
66	0xbcdbf93e	-0.026852246
67	0x3e040a4f	0.12894557
68	0x3daa592b	0.08317789
69	0x3dcde0c2	0.10052635
70	0x3d6c8376	0.05774256
71	0x3dfe1920	0.12407136
72	0xbd940b7b	-0.07228752
73	0xbe092113	-0.13391523
74	0x3b35a5fb	0.002771734
75	0x3de94323	0.113897584
76	0xbd902090	-0.07037461
77	0x3c643d30	0.013930604
78	0xbda768e7	-0.081743054
79	0xbd9d82c1	-0.07690955
80	0x3dc68cea	0.09694846
81	0x3dfe18e2	0.1240709
82	0xbd105cf5	-0.0352449
83	0x3d9de80c	0.07710275
84	0xbd33a23e	-0.043855898
85	0xbe1e37ce	-0.15450975
86	0x3d3ada8f	0.04561859
87	0x3d9c3f0d	0.076292135
88	0xbde0ede6	-0.109828755
89	0x393ec03b	0.00018191423
90	0xbded98bb	-0.11601397
91	0xbe146453	-0.14491396
92	0xbe09eebe	-0.13469979
93	0x3df99129	0.1218589
94	0x3d07c22b	0.033144157
95	0xbe123aaf	-0.14280199
96	0xbda4c573	-0.08045473
97	0x3de62c71	0.11238945
98	0xbe09b987	-0.1344968
99	0x3d9b57fa	0.075851396
100	0x3d64adbc	0.05582975
101	0xbd696c49	-0.056988034
102	0x3dac8e31	0.08425558
103	0x3cebc2af	0.028779356
104	0x3e09ff30	0.13476253
105	0x3e125001	0.14288332
106	0xbda5adce	-0.08089791
107	0x3dbdb962	0.092638746
108	0xbd15cfc4	-0.036575094
109	0xbdb3e1b6	-0.08783285
110	0x3de554c9	0.11197812
111	0x3da795dc	0.0818288
112	0x3b13fb72	0.0022580293
113	0xbd4628fb	-0.048378926
114	0xbd06e47a	-0.032932736
115	0xbca08938	-0.019596681
116	0x3e016e00	0.12639618
117	0x3ded1565	0.11576346
118	0x3dbd8f9b	0.09255906
119	0x3dfd1dc7	0.12359195
120	0xbdf1b3d1	-0.118018754
121	0xbd9aa5c3	-0.07551148
122	0x3d039a2a	0.032129444
123	0xbe09aca8	-0.1344477
124	0x3de5e19b	0.112246715
125	0xbd186f64	-0.037215605
126	0xbc9cbc3a	-0.019132722
127	0xbe0678a4	-0.13131958
128	0xbd8facb2	-0.07015361
129	0xbd2fcf76	-0.04292246
130	0x3d9404a4	0.07227448
131	0xbd7eef0f	-0.062239703
132	0x3d89f6a3	0.06736495
133	0xbd7b33a5	-0.06132855
134	0x3d02e7c9	0.03195933
135	0x3dae44c7	0.08509212
136	0xbda35c38	-0.07976574
137	0xbd6735ef	-0.05644792
138	0x3e0ef758	0.13961542
139	0x3d5f6c24	0.05454649
140	0x3d9614b3	0.07328167
141	0xbcdf7b19	-0.027280377
142	0xbdd92a61	-0.10603786
143	0x3e031601	0.12801363
144	0xbd9cddfb	-0.07659527
145	0x3d376557	0.04477438
146	0x3da27cb1	0.07933939
147	0x3dee7cf3	0.11644926
148	0x3dc54202	0.096317306
149	0x3c38d2c6	0.011280721
150	0xbdcc1f84	-0.09966949
151	0xbd269e98	-0.04067859
152	0x3de37b13	0.11107459
153	0x3d52536b	0.051349085
154	0xbe205088	-0.1565572
155	0x3d0d08aa	0.03443209
156	0x3d2c1c5b	0.04201923
157	0x3cb4b7f3	0.02206037
158	0x3dcce3c2	0.10004379
159	0x3d58a230	0.05288905
160	0x3d565b23	0.05233301
161	0x3d84933b	0.064733945
162	0x3d9d3af7	0.07677262
163	0xbcb06f9f	-0.0215376
164	0x3da362b7	0.07977813
165	0x3daf6b0b	0.08565339
166	0xb9fd993e	-0.00048370095
167	0x3bc3b114	0.005972037
168	0xbd840ef6	-0.06448166
169	0xbb9a6f44	-0.004712971
170	0xbcb52c81	-0.022115948
171	0xbdf8a614	-0.12141052
172	0x3caf6621	0.021411004
173	0xbd9e58d4	-0.07731786
174	0x3c4de7e8	0.012567498
175	0xbd173da2	-0.036924012
176	0xbdd4696c	-0.1037167
177	0xbe1ab2d0	-0.15107274
178	0x3c844637	0.016146762
179	0x3dcce4e9	0.10004599
180	0xbdb64f26	-0.08901815
181	0x3d9b152f	0.075724
182	0x3d549511	0.051899973
183	0x3dc270ec	0.094941944
184	0xbcb7a13d	-0.022415752
185	0xbd8496a8	-0.06474048
186	0x3d285b67	0.041102793
187	0xbd817ecb	-0.06323012
188	0x3d97489f	0.07386898
189	0xbd1dd494	-0.03853281
190	0x3def7c22	0.11693598
191	0x3da8f77d	0.0825033
192	0x3d0c00e1	0.034180526
193	0xbd94ef94	-0.072722584
194	0x3ddd8f39	0.10818333
195	0xbd902d8e	-0.07039939
196	0xbd0ed2fd	-0.034869183
197	0xbd02affb	-0.03190611
198	0x3e01c8a7	0.12674199
199	0x3db08510	0.0861913
200	0xbd45ade7	-0.04826155
201	0x3c8916c8	0.016734496
202	0x3cf2934a	0.029611249
203	0x3d0ca759	0.034339283
204	0xbd8665d7	-0.06562393
205	0xbe096f31	-0.13421322
206	0x3dd97403	0.106178306
207	0xbdac6b6b	-0.08418926
208	0x3dfd12f0	0.12357128
209	0x3d7ecdb1	0.06220788
210	0x3d9f2216	0.07770173
211	0xbe023893	-0.12716894
212	0xbdee15b7	-0.116252355
213	0x3ccc8710	0.024966747
214	0xbd857773	-0.06516924
215	0x3d5ac142	0.05340696
216	0x3d85f2ae	0.06540428
217	0xbdadb36a	-0.08481486
218	0xbd64757b	-0.0557761
219	0xbe01fea2	-0.12694791
220	0x3dc37a96	0.09544866
221	0x3d927063	0.07150342
222	0xbc0d84c2	-0.008637609
223	0x3e00160f	0.12508415
224	0xbc797d5b	-0.015227641
225	0x3d3a2b6c	0.045451567
226	0xbd6ac798	-0.057319254
227	0xbd3288d4	-0.04358752
228	0xbcc69cb7	-0.02424465
229	0x3c85f568	0.01635237
230	0xbb915a3f	-0.004435807
231	0x3da87059	0.082245536
232	0x3d96b30c	0.07358369
233	0xbdceff7d	-0.10107324
234	0xbd9b77ac	-0.07591185
235	0xbe1c8b26	-0.15287456
236	0xbdd4b29c	-0.103856295
237	0x3dbf126e	0.09329687
238	0xbdf86a15	-0.121296085
239	0xbdaba80d	-0.083816625
240	0xbdda65a3	-0.10663917
241	0x3ce54eb7	0.027991636
242	0x3d1207a6	0.035651825
243	0xbdd57b35	-0.104238905
244	0x3d9f9a34	0.07793084
245	0x3d8d5a00	0.06901932
246	0x3dbf75e5	0.093486585
247	0x3d000041	0.031250242
248	0xbdac4166	-0.08410911
249	0xbcf862e7	-0.030320598
250	0xbda4c78f	-0.08045875
251	0x3d1ace72	0.037794538
252	0xbc4aba9b	-0.012373592
253	0x3d0cda55	0.034387905
254	0xbda75255	-0.081700005
255	0xbd725f45	-0.059172887

fc1.bias f4 [128]
0	0x3df3fda0	0.119136095
1	0xbe04c2a6	-0.12964877
2	0x3d4d6d03	0.05015279
3	0xbe0b5dd4	-0.13610011
4	0xbd26597f	-0.040612694
5	0x3d820163	0.06347921
6	0x3cc82265	0.024430463
7	0xbd06a87e	-0.03287553
8	0x3e23c3ad	0.15992613
9	0xbde695f6	-0.112590715
10	0xbdcba8cf	-0.09944307
11	0xbe09948a	-0.1343557
12	0xbd9ce595	-0.07660977
13	0xbdefba91	-0.117055066
14	0xbd9462d5	-0.07245413
15	0x3dee8339	0.116461225
16	0x3dca5b39	0.098806806
17	0xbd087091	-0.033310477
18	0x3e17208b	0.14758508
19	0xbda53bec	-0.0806807
20	0x3d8bdfe9	0.06829817
21	0x3dcec647	0.10096412
22	0x3ddaa4f2	0.10675992
23	0xbdf06d66	-0.11739616
24	0xbd98afea	-0.07455428
25	0xbda5572c	-0.08073267
26	0x3c8c938f	0.017160205
27	0x3da34ae2	0.07973267
28	0xbdb40612	-0.0879022
29	0xbc1405e9	-0.009034612
30	0x3df532eb	0.119726025
31	0xbcd6e0c4	-0.026230223
32	0x3d1e6d71	0.03867859
33	0x3dca54bf	0.09879445
34	0x3e09c6f3	0.134548
35	0x3d54305e	0.05180394
36	0x3d4e9803	0.05043794
37	0x3dd58b96	0.104270145
38	0x3de7d944	0.11320737
39	0xbd2b0662	-0.041754134
40	0x3e0346ac	0.12819928
41	0xbd38e068	-0.045135885
42	0x3de9c6c3	0.11414864
43	0x3bc9339a	0.0061401846
44	0xbe00d54d	-0.12581368
45	0x3e04cb75	0.12968238
46	0xbcb7a9c5	-0.02241982
47	0x3dcf5b36	0.10124819
48	0xbdbd008c	-0.0922862
49	0xbdc797cb	-0.09745749
50	0x3d013a59	0.031549785
51	0xbe044043	-0.12915139
52	0x3d1a11ef	0.03761476
53	0x3ca2a898	0.019855782
54	0x3de6453c	0.11243674
55	0x3ca5cd8d	0.020239616
56	0xbd766c49	-0.060161863
57	0xbd2e5010	-0.042556822
58	0xbda41f7d	-0.080138184
59	0x3db06d0e	0.086145505
60	0x3dd6135b	0.104529105
61	0xbd06e99f	-0.032937642
62	0x3de934c8	0.1138702
63	0x3c0c0e5a	0.008548344
64	0xbd6c2641	-0.05765367
65	0xbcd401c2	-0.025879744
66	0x3e063d61	0.13109352
67	0xbe0b618d	-0.13611431
68	0x3d00ac4a	0.031414308
69	0x3dc66cb9	0.09688706
70	0x3dd63b67	0.10460549
71	0xbe0c0722	-0.13674596
72	0xbdb90ac5	-0.09035257
73	0x3dcf8220	0.10132241
74	0xbd1e063a	-0.038580157
75	0xbd5baef7	-0.053633656
76	0xbdc488f8	-0.09596437
77	0x3d3924b5	0.045201022
78	0xbdc62072	-0.09674157
79	0x3e14084f	0.14456294
80	0xbe001acd	-0.12510224
81	0x3d7bbb17	0.06145772
82	0x3de4fefc	0.11181447
83	0xbaf41dcd	-0.0018624604
84	0x3db24896	0.08705251
85	0xbd16774d	-0.036734868
86	0xbd3465ce	-0.0440424
87	0x3dc35d51	0.09539283
88	0x3cbaf9ff	0.022824286
89	0x3e0fd312	0.1404536
90	0xbd260de6	-0.0405406
91	0xbd57c6a6	-0.05267968
92	0x3d9a9fae	0.07549988
93	0xbdafc030	-0.08581579
94	0x3c2537a3	0.010084066
95	0x3c1e6fdb	0.009670223
96	0x3dc8b8dc	0.09800884
97	0x3c5b1f9e	0.013374237
98	0xba6ebd3e	-0.0009107179
99	0x3d5f068a	0.054449596
100	0x3e07025a	0.13184491
101	0xbd76f627	-0.060293343
102	0xbde05bac	-0.10954985
103	0xbdd126f5	-0.102125086
104	0xbdc6ff8a	-0.09716709
105	0xbe1701ea	-0.14746824
106	0x3dae5c0f	0.085136525
107	0x3bf46421	0.0074582254
108	0xbcfd98f7	-0.030956728
109	0x3dbba350	0.09162009
110	0xbd614a5a	-0.055002548
111	0x3c87c88d	0.016575122
112	0x3e0fd4cc	0.1404602
113	0xbd5edb16	-0.054408155
114	0xbd184387	-0.037173774
115	0xbd96f0e2	-0.073701635
116	0x3a613ebd	0.00085924176
117	0xbd9acf24	-0.0755904
118	0x3d8c6da2	0.06856848
119	0xbd8a930c	-0.06766328
120	0xbdea2c61	-0.11434246
121	0xbdf78575	-0.12086002
122	0x3e25f814	0.16207916
123	0x3dcc45d2	0.09974255
124	0xbe01e5c7	-0.1268531
125	0x3e13714e	0.14398691
126	0xbe015c55	-0.12632878
127	0x3c0eb84c	0.008710932

fc2.weight f4 [128, 128]
0	0xbd42e2d6	-0.04757961
1	0x3b598a32	0.0033193943
2	0x3da22548	0.07917267
3	0x3cd3bb24	0.025846072
4	0x3c4f04bd	0.012635407
5	0xbda7977e	-0.08183192
6	0xbd8fd69f	-0.070233576
7	0x3d934c63	0.07192304
8	0x3c62636d	0.01381765
9	0x3dbaf4d3	0.09128728
10	0xbcb3dc86	-0.02195574
11	0xbd7c7561	-0.06163538
12	0x3cdce825	0.026966164
13	0xbda7634c	-0.08173236
14	0x3cec627c	0.028855555
15	0xbd4b9bfd	-0.04970931
16	0x3c87765c	0.01653593
17	0x3c8ace8b	0.01694419
18	0xbd8ae891	-0.0678264
19	0xbd7bf221	-0.06151021
20	0xbd9c6d71	-0.07638062
21	0x3d79ee9c	0.06101857
22	0xbd83c283	-0.064335845
23	0xbcdf78f9	-0.027279364
24	0x3b1b1387	0.0023662762
25	0xbd97418d	-0.0738555
26	0x3bf0f5df	0.007353529
27	0x3a00f54e	0.0004919366
28	0x3d8d771d	0.06907485
29	0xbdbc554a	-0.09195955
30	0xbd6e5d4c	-0.058194444
31	0xbd6680d3	-0.0562752
32	0x3d07302a	0.033004917
33	0x3d5c78a5	0.053825993
34	0xbd3075b9	-0.04308102
35	0xbd50d871	-0.050987665
36	0x3d635952	0.055505104
37	0xbd916111	-0.07098592
38	0xbdc336e2	-0.095319524
39	0x3d8f4092	0.06994738
40	0x3d996582	0.07490064
41	0xbd85384d	-0.06504879
42	0xbda95bfe	-0.08269499
43	0x3d329e35	0.04360791
44	0xbdc78990	-0.09743035
45	0x3bf7e11c	0.007564677
46	0x3c65249a	0.013985777
47	0xbca52a8d	-0.020161891
48	0xbd89d413	-0.06729903
49	0x3d8390b3	0.064240836
50	0xbceabfbc	-0.02865588
51	0xbd11e063	-0.035614382
52	0xbcda2f24	-0.026633807
53	0x3d1a1165	0.037614245
54	0x3da505ac	0.080577224
55	0x3cab6c60	0.0209257
56	0xbdc1e87e	-0.094681725
57	0x3d9ee9f2	0.07759465
58	0xbd7b8a08	-0.061410934
59	0xbbd9c2db	-0.006645543
60	0xbcb9713a	-0.022636998
61	0xbdc4d9ef	-0.0961188
62	0xbca9203b	-0.020645251
63	0xbdaf00a2	-0.085450426
64	0x3dbd895d	0.092547156
65	0xbd4eef70	-0.050521314
66	0x3cf93302	0.03041983
67	0xbc05ed0d	-0.008174193
68	0xbd47d86f	-0.04879039
69	0xbca77010	-0.020439178
70	0x3d8d8ab0	0.06911218
71	0x3d7ee969	0.062234316
72	0x3c194359	0.009354436
73	0x3d2fc2ed	0.042910505
74	0xbd4b34b6	-0.049610816
75	0x3d486333	0.04892273
76	0x3dbd20d5	0.09234778
77	0x3d61dd6c	0.055142805
78	0xbc01a15e	-0.007912008
79	0x3d8461db	0.06463977
80	0xbd4be3b4	-0.0497777
81	0x3ccde5f5	0.025134066
82	0xbda709d0	-0.081561685
83	0x3d734de7	0.059400465
84	0xbd01d222	-0.03169454
85	0xbd5f6adf	-0.05454528
86	0x3db6c1c3	0.08923676
87	0xbd5b67fb	-0.05356596
88	0x3d087cec	0.03332226
89	0xbd6af71e	-0.057364576
90	0xbd94c469	-0.07264025
91	0x3c56de42	0.013114514
92	0x3d10b957	0.035333004
93	0xbbd3b5e0	-0.00646089
94	0x3d2b46b6	0.041815482
95	0xbc78f8cc	-0.015196037
96	0x3c063e5a	0.008193577
97	0xbd2bf208	-0.041978866
98	0xbda5751c	-0.080789775
99	0x3cac4876	0.021030646
100	0xbd3a2e05	-0.045454044
101	0xbd429022	-0.047500737
102	0x3d569a42	0.052393205
103	0x3d9548df	0.0728929
104	0xbdb8fb81	-0.090323456
105	0xbcfc473b	-0.030795684
106	0xbd4f7279	-0.05064628
107	0xbc6bcdda	-0.014392341
108	0xbb3deb7b	-0.0028979469
109	0xbd07825c	-0.033083305
110	0x3d67004c	0.056396767
111	0x3c38e77c	0.011285659
112	0x3d7f755b	0.06236778
113	0xbd0c3862	-0.03423346
114	0xbda70253	-0.0815474
115	0xbd84586c	-0.06462178
116	0xbd0e55c3	-0.034749757
117	0xbd9b710d	-0.07589922
118	0xb9d39f91	-0.00040363942
119	0x3c9909dc	0.01868146
120	0xbd5bfacc	-0.053705975
121	0xbd76fa8f	-0.060297545
122	0xbd0ec11e	-0.03485214
123	0xbbfae99e	-0.007657244
124	0x3d7966f5	0.060889203
125	0xbd9ac8c3	-0.075578235
126	0xbc2089fb	-0.009798522
127	0x3d98a7bf	0.0745387
128	0x3cc6a8b2	0.024250362
129	0x3cea0d25	0.02857072
130	0x3b5ff00e	0.0034170183
131	0xbcc0b744	-0.023524888
132	0x3cb90f8e	0.022590425
133	0x3d0e8de5	0.03480329
134	0x3d9d40f9	0.07678408
135	0xbb9e0d7c	-0.004823385
136	0xbd9048ed	-0.070451595
137	0x3d7e74c2	0.062123068
138	0xbd682d62	-0.056683905
139	0x3d25ed84	0.040509716
140	0x3d602827	0.054725792
141	0xbd1cfbc4	-0.03832604
142	0xbdb7bcdd	-0.0897157
143	0x3cdb8b54	0.026799835
144	0xbcd877bd	-0.026424283
145	0xbd8d22de	-0.06891416
146	0xbc9b7182	-0.018975023
147	0xbc909475	-0.017648915
148	0xbcc4f672	-0.024043296
149	0x3d0ec90c	0.034859702
150	0xbd1e3574	-0.038625196
151	0xbd07e117	-0.033173647
152	0xbcad3fc5	-0.021148572
153	0xbdad1b4b	-0.08452471
154	0xbbf6a85d	-0.0075273947
155	0xbda738b2	-0.08165111
156	0xbda7ccca	-0.08193357
157	0xbcab3eba	-0.020903934
158	0x3da82d6f	0.08211791
159	0x3cfe8a05	0.031071672
160	0x3cd70c9a	0.026251126
161	0xbd9c312f	-0.076265685
162	0x3ad8d109	0.001654179
163	0x3d8ca82b	0.06868013
164	0xbd9e93e9	-0.077430554
165	0x3cbcf47a	0.023065794
166	0xbb70881a	-0.0036702217
167	0x3c6d3457	0.014477811
168	0xbd0b7e7f	-0.034056183
169	0x3d8664cc	0.06562194
170	0xbcb4db50	-0.022077233
171	0xbb7b9ceb	-0.003839309
172	0x3b3197ea	0.0027098604
173	0x3d58d251	0.05293495
174	0xbd143645	-0.036184568
175	0xbd8bbf09	-0.068235464
176	0x3da44595	0.08021084
177	0xbd616f17	-0.055037584
178	0x3d372538	0.04471323
179	0xbda0c8a9	-0.07850773
180	0x3d209d05	0.039212245
181	0xbd9864e7	-0.074411206
182	0xbcf632a1	-0.030053439
183	0xbcf6eca4	-0.030142136
184	0x3d947b78	0.07250112
185	0xbdb59801	-0.08866883
186	0xbc4a9a98	-0.01236596
187	0xbb7863df	-0.0037901325
188	0xbd19ed00	-0.037579536
189	0xbd826ad9	-0.06368036
190	0xbd930fa8	-0.071807206
191	0xbdb99e8d	-0.09063444
192	0x3db093db	0.08621951
193	0x3d7f6ce2	0.062359698
194	0xbd7f79d2	-0.062372036
195	0xbd5007c3	-0.050788652
196	0xbbd8b302	-0.0066131363
197	0x3bf2a123	0.007404463
198	0xbd4d5128	-0.050126225
199	0xbc894430	-0.016756147
200	0x3d6e538c	0.058185145
201	0xbd80278b	-0.06257542
202	0x3b54c83d	0.0032467984
203	0x3d7f31a8	0.062303215
204	0x3d43e483	0.047825348
205	0xbcaae15f	-0.020859418
206	0xbdab2aac	-0.083577484
207	0xbccecba1	-0.025243582
208	0xbad943c9	-0.0016575988
209	0xbd375bf6	-0.044765435
210	0x3da33299	0.07968635
211	0x3d5f687c	0.054543003
212	0xbc55d806	-0.013051992
213	0xbccd765a	-0.025080848
214	0x3d1ab020	0.037765622
215	0x3da49b8a	0.08037479
216	0xbd750760	-0.059821486
217	0x3d0699c0	0.03286147
218	0xbd4a37ce	-0.049369626
219	0x3d82d548	0.063883364
220	0xbd527857	-0.051384296
221	0xbd58cebc	-0.052931532
222	0xbd2e340e	-0.042530112
223	0xbcb9a813	-0.022663152
224	0xbce6b6ca	-0.028163332
225	0xbc3a6981	-0.011377693
226	0xbd9de08d	-0.07708845
227	0x3d4c0ff2	0.049819894
228	0xbd83a2a6	-0.06427507
229	0xbd43c289	-0.047792945
230	0x3d3fb77b	0.04680584
231	0xbca2fdb4	-0.019896366
232	0x3c210cfd	0.009829757
233	0x3d39abd4	0.045329884
234	0x3daac231	0.0833782
235	0xbd391cf2	-0.04519362
236	0xbceac1b7	-0.028656824
237	0x3c6e0701	0.014528037
238	0x3cb5366c	0.022120677
239	0x3d6a2f19	0.057173822
240	0x3d5aaa86	0.05338528
241	0x3d4701b9	0.048585627
242	0xbd395f64	-0.045256987
243	0x3c136b07	0.008997685
244	0xbd96bd5f	-0.073603384
245	0x3c836e69	0.016043859
246	0x3db2f0a6	0.08737306
247	0xbccac52c	-0.024752222
248	0xbdbdd3c2	-0.09268905
249	0x3d59479c	0.053046808
250	0xbd45f87d	-0.04833268
251	0xbdce44a6	-0.100716874
252	0x3d876e26	0.06612806
253	0x3c74d867	0.014944172
254	0xbda6ed63	-0.08150747
255	0x3d91a29a	0.07111092

fc2.bias f4 [128]
0	0x3bce2c5a	0.006291908
1	0x3d953463	0.072853826
2	0x3c565460	0.01308164
3	0x3db5e8e7	0.08882313
4	0xbd6e3529	-0.058156166
5	0xbd84c713	-0.06483283
6	0x3db928f2	0.09041013
7	0xbcfebaeb	-0.031094989
8	0x3c87f2a3	0.01659519
9	0x3d36fadc	0.044672832
10	0xbd9e3346	-0.077246234
11	0x3d796600	0.06088829
12	0x3c0fb92f	0.008772179
13	0x3d1e6949	0.038674626
14	0xbc87c00e	-0.016571071
15	0xbd3dad9c	-0.046308145
16	0xbcd09c95	-0.02546529
17	0xbce96151	-0.028488787
18	0x3db2217a	0.086977914
19	0xbd3738e1	-0.04473198
20	0xbcb97c4d	-0.022642279
21	0xbc987ebb	-0.018615117
22	0xbda5f509	-0.08103377
23	0xbc679fcc	-0.01413722
24	0xbccb5179	-0.024819123
25	0x3cb6d3cc	0.02231779
26	0xbcf87a09	-0.030331628
27	0xbce70e4c	-0.02820506
28	0x3db63946	0.08897643
29	0xbd2d6a5c	-0.04233776
30	0x3d9f0a56	0.07765643
31	0xbd94b466	-0.07260971
32	0xbb379271	-0.002801087
33	0x3d851ead	0.064999916
34	0xbd93fd03	-0.072259925
35	0x3d4b936e	0.049701147
36	0xbca857bc	-0.020549648
37	0xbd4dd128	-0.050248295
38	0xbd8a6de1	-0.06759239
39	0x3d0d6e8e	0.03452926
40	0xbdb03d74	-0.08605471
41	0x3d8a1c96	0.067437336
42	0x3bb6a98d	0.0055744112
43	0xbd151b8b	-0.03640322
44	0x3d344882	0.04401446
45	0x3d571b84	0.052516475
46	0x3babeacf	0.005246497
47	0xbd647fc5	-0.055785913
48	0xbda88f02	-0.082304016
49	0x3cd738a6	0.02627213
50	0xbc6c9883	-0.0144406585
51	0x3d86dc44	0.06584981
52	0xbc89228b	-0.016740104
53	0xbcd7eca9	-0.026357966
54	0x3dcde548	0.100534976
55	0x3cff9330	0.031198114
56	0x3d931b50	0.07182944
57	0xbc3a1700	-0.011358023
58	0xbda1ab7c	-0.07894036
59	0x3d25be9f	0.040464994
60	0x3d40cbb4	0.047069266
61	0xbc5f2ad5	-0.013621052
62	0x3d24ad6b	0.040204447
63	0x3d7bfc20	0.061519742
64	0x3daed10a	0.08535965
65	0x3cd1ee91	0.025626453
66	0x3db8e36f	0.090277545
67	0x3d798d16	0.060925566
68	0xbd9a4c51	-0.075340874
69	0xbd584eb8	-0.052809447
70	0xbc596d9e	-0.013270764
71	0xbd4b6984	-0.049661174
72	0x3be54588	0.006996814
73	0xbd923f8d	-0.071410276
74	0xbc83abac	-0.01607307
75	0xbae84523	-0.00177208
76	0xbcaf765f	-0.021418748
77	0xbda8f4f0	-0.08249843
78	0x3d93b399	0.0721199
79	0xbd8aa425	-0.06769589
80	0xbd120fa5	-0.03565945
81	0xbd941c48	-0.07231957
82	0xbd8696e6	-0.0657175
83	0xbd182a82	-0.037149914
84	0x3d0b8063	0.034057986
85	0x3c71b218	0.0147519335
86	0xbd29e9ff	-0.04148292
87	0x3d28ed98	0.041242212
88	0x3c2f7a92	0.010710375
89	0xbd92690c	-0.07148942
90	0x3c0f6048	0.008750983
91	0x3cef0e3e	0.029181596
92	0xbca54edc	-0.020179205
93	0xbd6e72ba	-0.05821488
94	0xbd946440	-0.07245684
95	0x3d5ebe2b	0.054380577
96	0x3c3fc30d	0.011704219
97	0xbd9d0a8f	-0.076680295
98	0x3d1bf68d	0.038076926
99	0x3d5e4bd4	0.054271534
100	0x3d724a1a	0.0591527
101	0xbd9a26f7	-0.07526963
102	0x3d5780f0	0.0526132
103	0xbd166c39	-0.036724303
104	0x3d12603c	0.035736308
105	0xbd793841	-0.060844664
106	0xbd99c9ba	-0.075091794
107	0xbda9558b	-0.08268269
108	0xbd9b7f17	-0.075926
109	0xbceb5377	-0.028726323
110	0x3d6a7011	0.05723578
111	0x3d6983f0	0.05701059
112	0x3da08472	0.07837762
113	0x3c8d43d8	0.017244264
114	0x3cd001ce	0.025391486
115	0x3b9656db	0.0045879907
116	0x3d7bec9e	0.061504953
117	0xbcaa40f9	-0.020782935
118	0xbd917909	-0.07103164
119	0xbb95f28f	-0.0045760344
120	0xbd2ca03b	-0.042144995
121	0x3d2e14af	0.042500194
122	0x3cf2a53d	0.029619807
123	0x3d83be44	0.06432775
124	0xbd8d2eeb	-0.068937145
125	0xbcb4b301	-0.022058012
126	0xbd0c6706	-0.03427794
127	0x3cf8df67	0.030379964

fc3.weight f4 [641, 128]
0	0x3cf434b2	0.029810283
1	0xbd5f9b49	-0.05459145
2	0xbca6c920	-0.020359576
3	0x3d64ccf9	0.05585954
4	0x3d272354	0.040805176
5	0xbd666c36	-0.05625554
6	0x3a23efa5	0.00062536664
7	0x3d065ed2	0.03280527
8	0xbd927634	-0.07151452
9	0xbd191ce2	-0.03738106
10	0x3cbbb05e	0.022911247
11	0x3d6417ba	0.05568669
12	0x3cb349ac	0.021885715
13	0x3c87d907	0.016582979
14	0x3c8498fc	0.01618623
15	0xbd007409	-0.03136066
16	0x3d9ae92d	0.07564006
17	0xbd5359ae	-0.051599197
18	0x3d2b35c7	0.041799333
19	0x3d4d42a5	0.050112385
20	0x3d220508	0.03955558
21	0x3cbf627b	0.023362389
22	0x3d9f2d45	0.07772306
23	0x3d4562b7	0.048189845
24	0xbd8f4fb4	-0.06997624
25	0xbcee4cac	-0.029089294
26	0xbd5dedbf	-0.05418181
27	0xbd9ef136	-0.07760851
28	0xbd1a82f2	-0.037722535
29	0x3d7273e4	0.059192553
30	0x3d03cff2	0.032180734
31	0x3c1c0e68	0.009524919
32	0x3d5fd782	0.054648884
33	0xbd730e39	-0.059339736
34	0xbdad03ac	-0.08447966
35	0x3ccb96b7	0.02485214
36	0xbd40b346	-0.04704597
37	0xbca86040	-0.020553708
38	0x3d8b3bcb	0.06798514
39	0xbd3885c1	-0.045049433
40	0xbc08a43e	-0.00833994
41	0x3cdcbf4a	0.026946682
42	0x3d664006	0.0562134
43	0xbcf2020b	-0.02954199
44	0xbd91809c	-0.071046084
45	0x3d119199	0.035539243
46	0x3da501f6	0.08057015
47	0xbd2af042	-0.041733034
48	0xbd75379d	-0.05986749
49	0x3d406edb	0.04698072
50	0xbc960fad	-0.018318022
51	0x3c75c8bf	0.015001475
52	0x3d0fd692	0.03511674
53	0x3c847c00	0.016172409
54	0xbbc87016	-0.0061168773
55	0x3c0603e3	0.008179638
56	0xbd4c5709	-0.04988769
57	0xbd90112e	-0.07034527
58	0x3d413303	0.04716779
59	0xbd39ebf6	-0.045391046
60	0xbc40d3f6	-0.011769285
61	0x3d92551b	0.07145139
62	0x3d56ad04	0.052411094
63	0x3c9a77f4	0.018856026
64	0x3a33205e	0.0006833131
65	0xbbe73900	-0.0070563555
66	0xbce3cb0f	-0.027806787
67	0xbbfad098	-0.007654261
68	0x3b40c63c	0.0029415032
69	0x3d15102f	0.036392387
70	0xbb2cf5dc	-0.002639166
71	0xbcd824ee	-0.026384797
72	0xbd597e6e	-0.05309909
73	0x3be08a6a	0.0068524377
74	0x3d56fa96	0.05248507
75	0xbd26e008	-0.040740997
76	0x3d7a3790	0.061088145
77	0xbd9ad5b9	-0.075602956
78	0x3d862df8	0.065517366
79	0x3bd9ed9a	0.0066506388
80	0xbdc25db3	-0.09490528
81	0x3d099d57	0.033597317
82	0xbcfee0de	-0.031113084
83	0x3d9755fa	0.073894456
84	0x3d0c65d3	0.034276795
85	0x3d06019d	0.032716382
86	0xbb396377	-0.0028288045
87	0xbc66eecc	-0.01409502
88	0x3c956aa3	0.018239325
89	0xbddebb98	-0.108756244
90	0x3c0abb2b	0.008467476
91	0x3d9c73de	0.076392874
92	0xbd0cae7a	-0.03434608
93	0xbd87b261	-0.0662582
94	0xbbbea26f	-0.0058177034
95	0xbc0ffc05	-0.0087881135
96	0x3b97326f	0.0046141664
97	0x3cca948e	0.02472904
98	0x3d35c714	0.04437931
99	0x3c56b143	0.013103786
100	0xbd3b49d3	-0.0457247
101	0x3cb299ef	0.021801917
102	0x3d854069	0.06506426
103	0x3d1e9e7a	0.038725354
104	0x3d62bf7d	0.0553584
105	0xbd99bbee	-0.07506548
106	0x3cbfad63	0.023398107
107	0xbd92fa1f	-0.07176613
108	0x3d68d2f6	0.056841813
109	0xbd8cc1af	-0.0687288
110	0x3d0bed4e	0.03416186
111	0x3d679952	0.056542702
112	0xbd1f9d1e	-0.038968198
113	0x3d2c4ad8	0.042063564
114	0x3d5e827a	0.05432365
115	0xbcae9261	-0.021310033
116	0xbd5f4954	-0.05451329
117	0x3be5b5ae	0.0070101833
118	0xbd9ad789	-0.07560641
119	0x3d7194ef	0.058979925
120	0x3ca9ec0b	0.020742437
121	0x3d925c6b	0.071465336
122	0xbd6831c6	-0.056688093
123	0xbd8746b6	-0.06605284
124	0xbda45228	-0.080234826
125	0x3b9fcf55	0.004877011
126	0xbd495b08	-0.04915908
127	0x3d96e68a	0.073681906
128	0xbbc217e2	-0.005923257
129	0xbd58c922	-0.05292619
130	0xbd74c195	-0.059754927
131	0xbcf82cfe	-0.030294891
132	0x3d3359ec	0.043786928
133	0xbd84a645	-0.06477026
134	0xbd45fbac	-0.048335716
135	0x3d8e2c35	0.069420256
136	0x3c2bcf2e	0.010486407
137	0xbc8767aa	-0.016528923
138	0x3c9aa488	0.018877283
139	0xbd1d75d0	-0.038442433
140	0x3d062523	0.03275026
141	0x3d6aa9f5	0.05729099
142	0x3d5ac605	0.053411502
143	0x3cf94e38	0.030432805
144	0x3dbc894e	0.09205876
145	0x3c9369ca	0.01799478
146	0x3c31fbea	0.010863284
147	0x3c91af99	0.017783927
148	0xbcb308cf	-0.021854786
149	0xbbc8af96	-0.006124447
150	0xbd678f9d	-0.056533445
151	0xbd852247	-0.065006785
152	0xbcca4b88	-0.02469422
153	0x3d2607ef	0.04053491
154	0x3cbc276a	0.022968013
155	0x3d1e3c27	0.038631584
156	0x3d9af18c	0.07565603
157	0xbd1cd7f5	-0.03829189
158	0xbd1b7571	-0.037953798
159	0x3b857dc8	0.004073832
160	0x3c7a0de8	0.015262105
161	0xbccfbbec	-0.025358163
162	0x3d5b7f51	0.053588215
163	0x3dc1c6de	0.09461759
164	0xbca64b45	-0.020299563
165	0xbd700a45	-0.058603544
166	0xbcdcc923	-0.026951378
167	0x3d7df42a	0.06200043
168	0xbd29e88b	-0.041481536
169	0x3d4964cb	0.04916839
170	0xbd0713dc	-0.032977924
171	0xbd8b22a3	-0.06793716
172	0xbd90b77f	-0.07066249
173	0x3d59a7ba	0.053138472
174	0xbd9d4889	-0.076798506
175	0x3cc21779	0.023692833
176	0xbcb542b2	-0.02212653
177	0x3d3367cd	0.043800164
178	0xbd868d4f	-0.06569921
179	0x3db884e9	0.090097256
180	0xbd9d2c62	-0.07674481
181	0xbd7f29f6	-0.062295876
182	0xbd04ea8e	-0.03245025
183	0x3c212e4f	0.009837701
184	0xbcd0890f	-0.02545598
185	0x3d5dbb77	0.05413386
186	0x3d3387fc	0.043830857
187	0x3cb62c0f	0.022237806
188	0x3d6bf685	0.057608146
189	0x3c9f68c9	0.019459145
190	0xbd281616	-0.041036688
191	0xbd091759	-0.03346953
192	0x3d339c3f	0.04385018
193	0xbd9c1c44	-0.07622579
194	0xbd4b6c3f	-0.04966378
195	0xbd230e9a	-0.039808847
196	0x3d638876	0.05555006
197	0xbd180e65	-0.037123103
198	0xbda819fb	-0.082080804
199	0x3d4c078c	0.049811885
200	0xbb744ca4	-0.0037277127
201	0xbbb986d3	-0.0056618243
202	0xbd16d209	-0.0368214
203	0xbd720d60	-0.059094787
204	0x3d1372bf	0.035998102
205	0x3cb0ab2e	0.021566
206	0xbd9c2ff8	-0.07626337
207	0xbdadc131	-0.08484114
208	0xbd2132d4	-0.039355114
209	0x3d0c814d	0.034303
210	0x3d24b1b6	0.04020854
211	0x3d3e2e6e	0.046430998
212	0xbcd1bc28	-0.025602415
213	0xbd61b059	-0.05509982
214	0xbd8f6d0f	-0.07003223
215	0xbda3db00	-0.08000755
216	0xbca02f09	-0.019553678
217	0xbc9231a2	-0.017845932
218	0x3c48d27f	0.012257217
219	0xbd33c6bd	-0.043890703
220	0xbd15b653	-0.03655083
221	0xbd916534	-0.07099381
222	0xbb8a5da6	-0.0042225895
223	0xbbbdf0c6	-0.0057965247
224	0x3da2b095	0.079438366
225	0xbd7e8e16	-0.062147222
226	0x3d26ac80	0.040691853
227	0x3d8ef6ab	0.06980642
228	0xbc2c253e	-0.010506926
229	0xbdc87c98	-0.09789389
230	0xbd90667d	-0.07050798
231	0xbbc7d2bc	-0.0060981195
232	0xbdae8784	-0.08521941
233	0x3cc3fea4	0.023925133
234	0x3d277dd6	0.04089149
235	0xbc3d3ca7	-0.011550105
236	0xbda75303	-0.0817013
237	0xbd58874b	-0.0528634
238	0x3d9bf3e4	0.07614878
239	0xbccb5274	-0.02481959
240	0x3d802ae6	0.06258182
241	0xbcfac212	-0.030610118
242	0x3bf2345c	0.0073914956
243	0xbd0ba823	-0.034095895
244	0x3c5b1131	0.013370798
245	0x3d2a8fba	0.041640975
246	0xbd24f7dd	-0.040275443
247	0xbc9795de	-0.01850408
248	0x3d975669	0.07389528
249	0xbd63113d	-0.05543636
250	0xbd318ce1	-0.043347243
251	0xbda78184	-0.08179
252	0xbd4b86c9	-0.049689088
253	0xbdaff4be	-0.08591603
254	0xbbf5ee33	-0.007505202
255	0xbc9c927b	-0.019112816

fc3.bias f4 [641]
0	0x3d9651fa	0.073398545
1	0xbd4d913b	-0.05018733
2	0xbd231f82	-0.03982497
3	0x3db8782a	0.090072945
4	0x3db7be8c	0.08971891
5	0xbd377b59	-0.044795368
6	0xbc7b1492	-0.015324729
7	0x3d9fa7d6	0.07795684
8	0x3ce77522	0.028254095
9	0xbd42075d	-0.047370303
10	0x3d8b5ae2	0.06804444
11	0xbd3ef194	-0.046617106
12	0xbda4dda3	-0.08050086
13	0x3d7aaa7e	0.06119775
14	0xbbe0168d	-0.0068386258
15	0x3c04e5a6	0.008111393
16	0x3dcba1b0	0.09942949
17	0x3d1d6639	0.038427565
18	0xbc400ab2	-0.0117213
19	0xbd6b1ca2	-0.057400353
20	0xbca4179a	-0.020030785
21	0xbd472daf	-0.04862755
22	0xbc07bcba	-0.008284742
23	0xbd906b15	-0.07051674
24	0x3cd008dd	0.025394851
25	0x3c51c5d9	0.012803518
26	0x3ca9a023	0.020706242
27	0xbcebf629	-0.028803902
28	0xbcc2ea20	-0.02379328
29	0xbd6dc385	-0.05804779
30	0xbd7c93eb	-0.061664503
31	0xbd204699	-0.039129827
32	0x3d97ebf2	0.0741805
33	0xbd7dfee8	-0.062010676
34	0xbd00dbb3	-0.03145952
35	0x3ceadaaf	0.02866873
36	0xbd71bb57	-0.05901655
37	0xbc9739d4	-0.018460192
38	0xbdae8916	-0.08522241
39	0x3d363b3e	0.04449009
40	0xbcabd654	-0.020976223
41	0xbc094718	-0.0083787665
42	0xbd0baeb5	-0.03410216
43	0x3cc41542	0.023935918
44	0xbd6cb77d	-0.057792176
45	0x3da81dc6	0.08208804
46	0x3c838d21	0.016058506
47	0x3d066cdb	0.032818656
48	0xbd560ebc	-0.052260146
49	0x3cbee86e	0.02330419
50	0xbc431353	-0.011906463
51	0xbdbf7f94	-0.093505055
52	0xbdd7d664	-0.10538939
53	0x3d5a32c3	0.053271066
54	0x3d152741	0.03641439
55	0xbd12c3e6	-0.035831355
56	0x3dc66d56	0.09688823
57	0x3cbbca17	0.022923512
58	0x3d60e3a5	0.0549046
59	0x3d8ba53b	0.068186246
60	0x3cd6dfe4	0.026229806
61	0x3ca0c8c8	0.01962699
62	0xbca5bd29	-0.0202318
63	0x3da4ff99	0.08056564
64	0xbc47d2d7	-0.012196264
65	0xbba8f8c8	-0.00515661
66	0xbdfdf01e	-0.12399314
67	0xbc869515	-0.01642851
68	0x3d82ea01	0.06392289
69	0xbd5fa0d4	-0.054596737
70	0xbda4a755	-0.080397286
71	0x3dc650cf	0.09683382
72	0x3d988e67	0.07449036
73	0xbd8c9f5c	-0.06866333
74	0xbd482090	-0.04885918
75	0x3d5d61ff	0.054048534
76	0xbd0fcb57	-0.03510603
77	0x3afbf9d2	0.0019224233
78	0x3cf0f3b3	0.02941308
79	0xbd52382d	-0.051323105
80	0xbd7db0d1	-0.061936203
81	0xbd95f145	-0.07321409
82	0xbd5c97c6	-0.05385568
83	0xbd56fc3c	-0.052486643
84	0x3d2739a4	0.040826455
85	0xbdb656f0	-0.08903301
86	0x3d102b4b	0.035197537
87	0x3d3fe8cf	0.046852883
88	0xbd0e149f	-0.034687635
89	0x3d201dde	0.039090984
90	0xbd3e458f	-0.046453055
91	0xbd266e7d	-0.040632714
92	0x3d726b4b	0.059184354
93	0xbbce8dec	-0.0063035395
94	0x3d27b9f1	0.040948812
95	0xbca74c83	-0.020422226
96	0xbd91dde0	-0.071223974
97	0x3ce0224c	0.027360104
98	0x3dcae2e2	0.09906556
99	0xbd09774e	-0.033561043
100	0xbd07fe8c	-0.03320174
101	0xbdadde8b	-0.08489712
102	0x3daf905d	0.08572457
103	0x3dd47023	0.10372951
104	0x3bfa66d8	0.0076416545
105	0xbca4f959	-0.02013843
106	0xbd1982fe	-0.03747844
107	0x3b763bfb	0.0037572372
108	0x3db0c686	0.08631615
109	0x3d5204bf	0.051274057
110	0x3cee567d	0.029093975
111	0xbdb74981	-0.08949567
112	0xbbbf7e5b	-0.00584392
113	0x3cd35c2b	0.025800785
114	0x3ce4255d	0.027849847
115	0x3d2b697d	0.04184865
116	0xbd0f3139	-0.03495905
117	0x3d812958	0.06306714
118	0xbc8f1f7b	-0.017471066
119	0xbd86ebf6	-0.06587975
120	0x3d485e3a	0.048917986
121	0xbd7d241a	-0.061802007
122	0xbcdddb62	-0.027082149
123	0xbd36b75d	-0.044608463
124	0x3d152ee3	0.036421668
125	0xbd6ddeba	-0.058073737
126	0x3da23c84	0.07921699
127	0xbd861f33	-0.065489195
128	0xbd6e0300	-0.05810833
129	0xbd323557	-0.0435079
130	0x3cc6a057	0.024246378
131	0x3d0c69fa	0.034280755
132	0xbd33d172	-0.043900914
133	0x3cc2b588	0.023768201
134	0x3d28738c	0.04112582
135	0x3d835523	0.06412723
136	0x3d259bdd	0.040431846
137	0x3d8bb267	0.06821137
138	0xbdb99adf	-0.090627424
139	0xbd879800	-0.066207886
140	0x3d66890e	0.05628305
141	0x3d03528c	0.032061145
142	0x3d45de14	0.048307493
143	0x3cb2d980	0.021832228
144	0xbd00539c	-0.031329736
145	0xbc56d7c3	-0.013112965
146	0x3d3ffbde	0.04687106
147	0xbc9243ec	-0.017854653
148	0xbd0ff8cc	-0.03514938
149	0x3da0efc6	0.07858233
150	0x3ab63eb4	0.0013904185
151	0xbd4aacbe	-0.049481146
152	0xbd73b2bf	-0.059496637
153	0xbca1d88d	-0.01975658
154	0x3d4592ec	0.04823582
155	0xbd8b7a52	-0.0681044
156	0xbd754ff1	-0.05989069
157	0x3b0186a2	0.0019764085
158	0x3b5c50ec	0.003361757
159	0xbb048f23	-0.0020226918
160	0x3d403138	0.04692194
161	0xbd9cf0a4	-0.07663086
162	0xbab85cbf	-0.0014065726
163	0xbc03694d	-0.008020711
164	0xbbd61877	-0.006533678
165	0xbdc7d32d	-0.097570755
166	0xbc83bb44	-0.016080506
167	0x3c182996	0.009287259
168	0x3cccc2e8	0.024995282
169	0x3d5cc56f	0.053899225
170	0xbcaf26a1	-0.021380724
171	0xbc065e4b	-0.008201192
172	0x3b8173a2	0.003950552
173	0xbcf9c047	-0.030487193
174	0xbd9fb561	-0.07798267
175	0x3db8fa54	0.09032121
176	0x3d46c21d	0.048524965
177	0x3d147090	0.03624016
178	0xbd47bbf7	-0.04876324
179	0x3d9dfdf2	0.07714452
180	0x3c98bf57	0.018645925
181	0xbcc707b4	-0.024295665
182	0x3da0f6e0	0.07859588
183	0xbaf995c4	-0.0019041826
184	0xbd593e08	-0.053037673
185	0x3d46ae3d	0.04850601
186	0x3d09ee9e	0.03367483
187	0xbd99a362	-0.07501866
188	0x3ad01f8d	0.0015878543
189	0x3ce0bc75	0.027433613
190	0xbc663eee	-0.01405309
191	0xbb715a48	-0.0036827493
192	0xbd88b7b9	-0.06675667
193	0xbd315290	-0.04329163
194	0xbcc5bc7e	-0.024137732
195	0xbab3529e	-0.0013681238
196	0xbd9af2f6	-0.07565872
197	0xbb1d73a9	-0.0024025238
198	0x3c874924	0.016514368
199	0x3d3b7b77	0.045772042
200	0xbd02a997	-0.031900015
201	0xbd979f5d	-0.07403443
202	0x3d68bb88	0.05681947
203	0x3cbc5026	0.022987437
204	0x3d3e2f00	0.04643154
205	0x3d8b549e	0.06803249
206	0xbd2047e3	-0.039131057
207	0xbd92cab5	-0.071675695
208	0x3d8ddbd6	0.06926696
209	0xbdddb5e3	-0.10825708
210	0xbda554f4	-0.08072844
211	0xbcc3febd	-0.02392518
212	0xbc991274	-0.018685557
213	0x3d873518	0.06601924
214	0xbb162fa9	-0.0022916591
215	0x3dbc4899	0.091935344
216	0x3b94ff69	0.004547049
217	0xbd5b8ee2	-0.05360306
218	0xbc634ef1	-0.013873802
219	0xbd822647	-0.06354957
220	0x3da779ce	0.08177529
221	0x3d62fdcf	0.055417832
222	0x3c5fb277	0.013653389
223	0x3dcfad1d	0.101404406
224	0xbd88e707	-0.0668469
225	0xbd156f4d	-0.036483098
226	0x3dadf744	0.08494428
227	0xbd05eb7d	-0.032695282
228	0xbd6b0fba	-0.057388045
229	0x3d6bb751	0.05754787
230	0x3d1745ea	0.03693191
231	0x3d97ecda	0.07418223
232	0x3d1d2e3e	0.038374178
233	0xbd9c4531	-0.07630385
234	0x3d5137d9	0.05107865
235	0xbd11a567	-0.03555813
236	0x3d80ca3b	0.062885724
237	0xbc34b1e6	-0.011028742
238	0xbcf37232	-0.029717539
239	0xbd052f2f	-0.0325157
240	0x3d923518	0.07139033
241	0xbd0469ba	-0.03232739
242	0x3a527fc1	0.0008029901
243	0x3dad79e7	0.08470517
244	0xbdbc0d04	-0.0918217
245	0x3c67cce0	0.014147967
246	0xbc37aeea	-0.011211136
247	0x3c28b7a7	0.010297692
248	0xbc8ad60d	-0.01694777
249	0x3d303617	0.043020334
250	0x3d672b26	0.056437634
251	0x3c3f5513	0.011677998
252	0xbb804ade	-0.003915175
253	0xbb427e98	-0.0029677507
254	0xbd2283e6	-0.03967657
255	0xbdb6f206	-0.08932881
