Assets/ONNX/1P_PPO_Builtin.onnx (onnx, 836420 bytes, 6 tensors)

fc1.weight f4 [128, 50]
00000000: cf05 e53c 78a1 d73d 469c 0b3d 6735 04be
00000010: a69c 583d abf6 083e 6416 093e 803b 18be
00000020: bcd9 f1bc a17a 79bd cf0b 0a3e f306 cdbd
00000030: 0329 a9bd 1b9e b93d a4fd b63d e283 0dbe
00000040: b21d 62bc 6b60 06be 2908 b8bd e743 b33d
00000050: 9232 dbbc 44b3 733c db6e fd3b 47f3 9e3d
00000060: ea23 093e 9a61 0d3e 9b77 23bd 1f99 b83d
00000070: 79f2 313d 66ef 8ebd 1c11 003e c936 65bd
00000080: 9708 2d3d 21ae a83c 3e1b 0c3e c91d c9bd
00000090: ead2 9dbc 7628 61bd 304c 033d d37b 433d
000000a0: 0772 6fbd e5d1 06bb bbd5 b13d 981b e4bb
000000b0: 7f26 64bd 2b3d 763d 5fb8 a4bd a0c7 d0bc
000000c0: 119c 0d3e 1e5f 0ebd 0bb6 c1bc b8de c1bd
000000d0: b84b f83d e18c b0bc 8c5b 8f3c 92bd aabd
000000e0: 1881 763d 11d0 d0bd f11b e0bd ea27 ad3c
000000f0: 98ce e93d 9179 8f3d f4af 993d 7ba0 98bd
00000100: a89c 703d 990c e03c 85fa f83d 4d36 7ebd
00000110: 3533 853d 2884 773d c954 d73d b5cf b5bc
00000120: 4827 a7bd 447a e13d b280 8d3d 33e4 ccbd
00000130: e07d cf3d ca80 72bd 2ff7 05bd d6a0 dabd
00000140: c795 2b3b 8920 ad3d e83b 0d3d 9910 bbbc
00000150: 2278 cfbd 8fa7 07bd 005a 993d bc5d aabd
00000160: 76c5 dc3d 3de3 9a3c a95a 8d3d 5059 65bd
00000170: 87d0 13be 5384 ed3d 8c8e ec3d 3c58 85bd
00000180: cfc6 02bd 9685 39bc f620 c63d 3032 33bd
00000190: b706 29bc a051 5fbd 9619 2ebd 9030 bcbd
000001a0: 14bd 26bd a0af 303c ff8d c53c c2b8 7a3d
000001b0: afe5 0a3d c531 423d 534b bebd b01c f03c
000001c0: b5e0 2b3d 61b7 a9bd ab14 c13d cef0 e03d
000001d0: 6b6d e13d 0f6a 50bc 5eee ff3d 5559 d3bd
000001e0: 1709 af3d b6c8 1e3d d0d3 0dbe 3f64 e03d
000001f0: d50e a43d aa73 293d eebd 1b3d 3031 c63d
00000200: 986d 263d 29c1 8cbd c3c0 e33c e23d 4b3d
00000210: a0c2 97bd f7a3 a3bd 7c86 e93c ccd7 04be
00000220: 69f8 10be c642 f83b 59c9 773d c839 823d
00000230: 91b6 bcbd 9c4e 813d 4c97 96bd 4191 b63d
00000240: e395 12be 4844 06be f3cd 253d 23ad cb3d
00000250: 7d0c 553d e3cb ff3b 96a5 ecbc 97de 66bd
00000260: 0f86 9d3c 8e1a 2cbd 6b41 05bd 7740 d53d
00000270: 7d2e f2bd 9d34 af3d 4e65 fbbd 9746 823d
00000280: 70dd b33d 9f48 013e dc76 3c3d c2d0 d23d
00000290: b183 10be 466d 4e3d 1b90 cb3d 6b7f 22bd
000002a0: 4be3 12be 67aa 4f3d 2752 93bd 295f 033e
000002b0: f03a c83d cad1 b03d 3781 63bd 4d1a bf3c
000002c0: 696c 3ebc 1e23 c63d 59f3 bebd 15cd e1bd
000002d0: d04b 993d 9600 c13d 326e cbbd d541 89bd
000002e0: 6c07 f8bd 7235 f33c 8932 81bd d536 adbc
000002f0: 2fec bebc 287b 07bd 9042 3cbd a227 6e3d
00000300: 4ff8 ee3d 35c7 de3c 6910 8dbd d86f cf3d
00000310: b009 d3bc 016b d03d 446a 6dbd 39c6 56bd
00000320: 8f0d 813d 20d2 02be 4297 953c 5f2b 5cbd
00000330: 4065 03be 2d2d cabd 3c04 ebbc b3a7 5bbd
00000340: 45e8 93bd 6f1c 913d 2a51 7dbd 8a5c b2bd
00000350: cdfc c23d e8d7 e7bc 6348 a53d 7b53 0fbe
00000360: c1b0 d0bc e39f efbd 4338 ffbd e347 723d
00000370: e4a9 e13c fe35 fc3d 6fc6 f83c b51d eb3d
00000380: 0d3d 9abd 170e f83c 94b2 133d b690 aa3d
00000390: b4a9 d23d 451a 253d 7e53 0d3e a037 d73d
000003a0: 66b6 0abe 97b9 313d ed75 053c 133c 06bd
000003b0: 9d60 703c 488f c9bd d41d f0bd 6e53 b13d
000003c0: 3ba9 ea3d 4011 2d3d 3f3c 033e e2c5 94bd
000003d0: 0be4 1dbd e9d9 323d 8200 0f3d 62be 97bd
000003e0: 7af7 27bc a6c4 773b 12f1 123e 7dbe 2cbd
000003f0: 8fcc f73d ceb8 24bc 40c1 40bd 6a7f 123b
0.027956871 0.105288446 0.03408458 -0.12910996 0.052883767 0.13375346 0.13387448 -0.14866447
-0.02952277 -0.060907964 0.13481067 -0.10011091 -0.082597755 0.09063359 0.08935097 -0.1381984
-0.013801025 -0.13122718 -0.089859314 0.08753186 -0.026757512 0.014874283 0.0077341623 0.07761245
0.13392606 0.13806763 -0.039908987 0.090135805 0.04344413 -0.069792554 0.12506527 -0.05596045
0.04224452 0.020590844 0.13682267 -0.09820134 -0.01926561 -0.054970227 0.03205508 0.04772551
-0.058458354 -0.0020571884 0.08683344 -0.0069612972 -0.055700775 0.060116928 -0.080429785 -0.025485814
0.13829066 -0.03475868 -0.023646375 -0.09466308 0.12123817 -0.021551551 0.017499708 -0.08336939
0.060181707 -0.101959355 -0.109428294 0.021137197 0.11416358 0.07005609 0.075042635 -0.07452484
0.05874315 0.027349757 0.12157158 -0.062063504 0.065039076 0.06042877 0.10514218 -0.022193769
-0.08161789 0.110096484 0.06909312 -0.10004463 0.101314306 -0.059204854 -0.032706436 -0.10675208
0.0026181804 0.08453471 0.03448096 -0.022835063 -0.101303354 -0.03311878 0.07487869 -0.0831866
0.1077985 0.018907184 0.06902058 -0.05599338 -0.14435016 0.115975045 0.11550626 -0.0651097
-0.03192788 -0.011323353 0.096742555 -0.043749034 -0.010316542 -0.054521203 -0.04250487 -0.0918895
-0.040707663 0.01078406 0.02411556 0.061211355 0.03391045 0.047410745 -0.09291711 0.029310554
0.041962344 -0.0828693 0.0942777 0.1098343 0.11007198 -0.012720599 0.12496637 -0.10319773
0.085466556 0.03876563 -0.13850331 0.109566204 0.080106415 0.04137007 0.038022928 0.096773505
0.04063186 -0.0687278 0.027801877 0.049619563 -0.07410169 -0.07990258 0.02850651 -0.12972945
-0.14157261 0.0075763194 0.060494754 0.06358677 -0.09214509 0.06313822 -0.07353076 0.08914424
-0.1431499 -0.13111985 0.04047961 0.099451326 0.052013863 0.0078062876 -0.028887551 -0.056364622
0.019228963 -0.042017512 -0.03253309 0.10412686 -0.11825273 0.08554957 -0.12275182 0.0636112
0.0878247 0.12625359 0.04601179 0.10293724 -0.14112736 0.05039718 0.09939595 -0.039672296
-0.14344518 0.050699618 -0.07193404 0.1282927 0.097768664 0.08633764 -0.05554315 0.02332797
-0.011622527 0.09674667 -0.09323759 -0.110254444 0.07485163 0.0942394 -0.099331275 -0.067020096
-0.121107906 0.02968857 -0.06308467 -0.02114431 -0.02330598 -0.033076435 -0.045961916 0.058143266
0.11668455 0.027194599 -0.068878956 0.101287544 -0.025761455 0.101766594 -0.05796267 -0.052435134
0.06301414 -0.12775469 0.018260602 -0.0537523 -0.12831593 -0.09871898 -0.028688543 -0.053626727
-0.07222036 0.070855014 -0.061844982 -0.08709057 0.09520874 -0.028301194 0.08070447 -0.13996689
-0.025474908 -0.11700418 -0.12461903 0.059150588 0.02754683 0.12314986 0.030368058 0.114802755
-0.07531176 0.030280156 0.036058977 0.08328383 0.102862746 0.040308256 0.13801381 0.105086565
-0.13546142 0.043389883 0.0081457915 -0.032772135 0.014671472 -0.09841782 -0.11724439 0.08658491
0.114580594 0.04225278 0.12815951 -0.07264306 -0.038547557 0.043664847 0.034912594 -0.074093595
-0.010251874 0.003780642 0.14349774 -0.04217385 0.12099563 -0.0100538265 -0.047059298 0.0022353777

fc1.bias f4 [128]
00000000: cfa1 19bd be3d ecbd 8334 07be 25c7 a4bd
00000010: 968f de3d bf45 3fbd 03fe 003e 9131 c5bd
00000020: f10c 363d a6a0 5ebc 9ce8 083e e954 513b
00000030: a1df 433d e32e cd3d 2ed0 ae3b d118 68bd
00000040: 505e 2cbc 68b6 2ebd 8217 453d 2b41 ec3d
00000050: e14e c0bd 472d d13d 38b4 9e3c 581f f83d
00000060: 2880 acbd c506 e4bd 57ad 053e 816d 27bd
00000070: a420 46bc 2145 e3bc 6177 9cbc 0d8d 953d
00000080: deb5 223c 987d 8d3c 8164 e4bd 12f0 ddbd
00000090: 989f d9bd 24b4 4b3d 2220 ad3d defd 033e
000000a0: 7360 bebc 6b1e bebd 0bd3 dc3d 2915 9bbd
000000b0: 52e4 29bd 379e a33c d9d8 4abd 0d85 043e
000000c0: 5e46 9b3d fac0 b43d db9d 53bd c58f ff3d
000000d0: 0f61 d1bd 18a7 00bd 3d79 93bd ad9d 1fbd
000000e0: b573 a03d e4bf ca3d e1e4 313b d338 043e
000000f0: d7a8 6fbd ef2f be3d 5f44 03bc 9a7c 5e3c
00000100: bf94 0c3d 3519 aa3d 1995 eebd 6fa6 0fbe
00000110: e2a0 963d 3175 bfbd 8e95 d83d 84d3 9abc
00000120: 8be5 fabb 57bc 76bd 3dc6 10bd c03a b3bd
00000130: 0ea2 9d3d 452f 61bd be79 e2bc 27f8 853d
00000140: 16c9 943d 749c 63bc 5d92 1f3d aa52 0fbe
00000150: 71bd a53b 1c24 ca3d 9871 e93c 8a8a 0fbd
00000160: 1b45 f63d f21b 903c 1086 323d 571b 1cbe
00000170: da10 8c3d 3b98 bd3d eb90 bb3c 0ea4 08be
00000180: 4d3b c7bd 1c26 863c dafc 98bb cef9 08be
00000190: 0ae4 ee3c 5aa1 0c3e 77a7 ae3d 0648 18bd
000001a0: 2698 56bc a845 a0bc fde7 2ebd 26d1 5c3d
000001b0: 6193 47bd 6fc5 fcbc fcd6 263d 101b 8d3d
000001c0: c438 debd e085 12be cea9 2a3d 5d3b 8e3d
000001d0: 5191 223c 754f 82bd b35d 433d b24b 823d
000001e0: 0666 823c edae aabd a242 fabd 3a16 07be
000001f0: 8df9 083e 4940 4cbc f0a9 7d3d 9cc1 cdbd
-0.03750783 -0.11535214 -0.13203625 -0.08045796 0.108672306 -0.046697374 0.12596898 -0.09628595
0.044445936 -0.013588106 0.13369983 0.003194148 0.04782069 0.100187086 0.0053348755 -0.05666429
-0.010520533 -0.042654425 0.048118122 0.11535867 -0.09390045 0.10213714 0.019373044 0.12115353
-0.08422881 -0.11134104 0.13054405 -0.040875915 -0.012092743 -0.027742924 -0.019099893 0.07302294
0.009931056 0.017271802 -0.11151982 -0.108368054 -0.10626143 0.049732342 0.084533945 0.12889811
-0.02323935 -0.092831455 0.10782441 -0.07572395 -0.04147751 0.019972904 -0.04952321 0.1294138
0.07581781 0.0882587 -0.051664215 0.12478594 -0.102235906 -0.031409353 -0.07200859 -0.03896873
0.07834569 0.098998815 0.002714448 0.12912302 -0.058510628 0.09286486 -0.008011906 0.013579512
0.034321543 0.08305589 -0.11649532 -0.14028333 0.07354905 -0.09348524 0.105754 -0.018899687
-0.007656758 -0.06023821 -0.035345305 -0.0875144 0.07696925 -0.05497672 -0.027645942 0.06541472
0.072649166 -0.013892282 0.038957942 -0.13996378 0.0050579836 0.098701686 0.028496549 -0.03504423
0.120248996 0.01759145 0.043584883 -0.15244804 0.06839152 0.09257551 0.02289625 -0.13343832
-0.097281076 0.016375594 -0.004668814 -0.13376543 0.029161472 0.13733426 0.08528035 -0.037178062
-0.013097798 -0.019564465 -0.04270171 0.053910397 -0.048724536 -0.030855862 0.04073237 0.068899274
-0.10850671 -0.14308882 0.041665845 0.069449164 0.009922341 -0.063628115 0.04769678 0.06362094
0.01591779 -0.08334146 -0.122197405 -0.13192073 0.13376446 -0.012466499 0.061929643 -0.10046694

fc2.weight f4 [128, 128]
00000000: d182 9dbc 93d9 e5bc 75e2 9e3c 37d9 09bd
00000010: d7bd ddbc d79c 83bd a0c5 7abd a75a 293c
00000020: b00d bebd 29d2 d8bb fe4f 3b3d a389 853d
00000030: 1309 abbd 607e 7ebc ec97 72bd 9c12 9ebd
00000040: a7bb a83d 6dad f5bc ee47 86bd d87f ee3c
00000050: 64d2 863d 98b6 8b3d 8209 1ebd 8472 1b3d
00000060: 86eb a63d d4a4 a8bd 74bd 7c3d 8359 aabb
00000070: 61d2 033d 7445 083d 18ee 56bc 6390 643d
00000080: ff90 a33c 7d1d 86bc f371 96bc 84da 813d
00000090: 6cdb 7d3d 21f7 91bd afbf c7bc 624c 3e3d
000000a0: 2f8f 863c 7258 383d 3dc5 303d 5e3e 5d3d
000000b0: 57db 873d 6807 953c 55a0 2dbd fb4c 9d3b
000000c0: 2c1c a73b ecf1 fd3c 535e d93c 530a 33bd
000000d0: 9fc5 c5bc 8aed a23d 586d b5bd 3f6e a7bd
000000e0: 5851 77bd 5e72 303d 3db9 99bd 1976 383c
000000f0: aa50 823d b017 853c 22c5 58bd 0a2f 36bc
00000100: 1cdc c9bb 213f 75bd d9f9 133d e9b9 c13c
00000110: 613a 6fbd e2c9 1cbd 154e a8bd 7bad dabb
00000120: ae80 a7bd 0f39 b03c 5902 84bd 9b66 af3b
00000130: bf07 a3bd 8d65 063d 2402 96bd 6e71 963d
00000140: b384 79bd f436 1cbd f137 2cbd 5ff6 153d
00000150: 6a24 9c3d 504c 643d f302 d23c 2345 21bd
00000160: 8090 1bbd 51fa 803d 1bc8 f9bc ce04 863d
00000170: c5c6 7d3d e4e4 103d 3f37 243c 9884 a3bd
00000180: 5c05 90bd fa28 1c3d 794c 5a3c 9d32 94bd
00000190: 46ea 9dbd f050 653d 2166 e53c 6151 6f3d
000001a0: 7c58 8a3d d2ff 37bd 8eef 823c f1bb 2d3d
000001b0: 8d6b 8fbd 2538 5bbd e132 26ba 984e a6bd
000001c0: 9ab1 9fbd f75d a73d 1239 8b3d 7155 59bc
000001d0: 62e6 65bd 5f21 a53d 54e0 2ebc f83d e0bc
000001e0: f414 7a3d 39d5 44bd 2ecb eebc 07d4 83bd
000001f0: 7f17 833b 2f38 2ebc 7e64 8cbd f3cd 25bd
00000200: 64c5 b7bd 9530 943d 3b89 b13d 0da4 b63c
00000210: 189b 6a3d 8996 62bd a8ae 05bc 248e 8abd
00000220: 2885 a1bd dc12 02bd a852 083d b23a df3c
00000230: 918d a1bc 55b9 4cbd caf5 55bd dc74 0ebd
00000240: c86d 393d a8f3 9f3d e269 833d 02bd 993d
00000250: c002 973d c519 adbd 5415 9c3d 24df ad3d
00000260: 269e 253d 93d7 563c 803d 00bd 94c4 3cbb
00000270: 5835 60bc 8364 a93c dfb6 4f3d d88e a5bd
00000280: 895b 433d e6ad 12bc e841 2bbd 01c9 323c
00000290: 4fac 2a3d 8320 42bc 78d0 693d 8631 eb3c
000002a0: ef19 c4ba 2783 c1bd 28f9 f03c ea36 9bbd
000002b0: 2cc6 103c c0af 453d 2dea 34bd 8e1c 203d
000002c0: 1244 82bc 0d7d 7a3b c111 8abb 274e 82bd
000002d0: 43bc 4a3d d13c cc3c 328f 393c c773 5bbc
000002e0: 99c4 433d 6523 0c3d 598c 50bd 0b4b 783d
000002f0: c7fe c8bc 0e19 a3bd 3593 983d 3603 153c
00000300: 76f5 d3bc 6681 363d b6ef b13c 9f93 38bd
00000310: e7b8 9a3d 3d10 adbb 44eb ab3b 731b b13d
00000320: 9c57 1f3d 5291 5cbd 9244 91bc d90a 52bd
00000330: ea25 153d 9440 13bd ba8d 823d 98b7 1bbd
00000340: cb9d b33d 9993 053c e24c a3bd 9f4c 923d
00000350: 1c6c 29bd bd49 3c3c cfe3 e8bc b0fb b6bd
00000360: d817 31bd 05c8 84bc 4229 3cbd 635f 5e3d
00000370: 34d8 c7bc be44 9d3d b990 b63d 0eb7 9e3d
00000380: b5f5 ad3d 3a8e 2ebd fb06 bdbd d802 0bbd
00000390: 20c2 8dbd 7e6b c7bd 3927 85bd 6aca 88bd
000003a0: c8a5 acbc 7410 95bd 1408 28bd 7f38 06bd
000003b0: e30a 62bd 0c62 57bd c71b 88bd 887a 953d
000003c0: 6d64 c5bc dbc6 333d d514 703d 13ec 223d
000003d0: 5c79 b5bd 655d 54bd 56c4 dbbc 130c 143d
000003e0: ed83 4d3d 63d0 acbd 0131 abbd 878c 97bc
000003f0: eafc b0bd 9a28 1f3d 3e31 b4bb 37ab 2f3d
-0.019227417 -0.028057849 0.019395093 -0.033654418 -0.027068062 -0.06426399 -0.061223626 0.010336555
-0.092799544 -0.00661685 0.045730583 0.06520393 -0.0835134 -0.01553306 -0.059226915 -0.07718393
0.08238917 -0.029989922 -0.06556688 0.029113695 0.065830976 0.06821936 -0.038583286 0.037951007
0.08150391 -0.082345635 0.061704114 -0.005198659 0.032183055 0.03326936 -0.013118289 0.05580176
0.0199666 -0.016371483 -0.018364882 0.06340507 0.061976835 -0.07127214 -0.024383394 0.046459563
0.016425697 0.045006223 0.04315685 0.054014556 0.06633633 0.018192008 -0.042389233 0.0048004366
0.005099794 0.030999146 0.026534235 -0.043711018 -0.024142085 0.07955463 -0.08858746 -0.08175325
-0.06038031 0.04307782 -0.075060345 0.011258625 0.06363042 0.016246647 -0.052922376 -0.011119613
-0.0061602723 -0.059874658 0.036126945 0.02364822 -0.058405284 -0.038278468 -0.08218018 -0.0066735125
-0.081788406 0.021511583 -0.0644576 0.0053528077 -0.07960462 0.03281169 -0.07324627 0.07345854
-0.060917567 -0.038138345 -0.042045537 0.03661191 0.07624133 0.05573684 0.025636172 -0.039372575
-0.037979603 0.06297744 -0.030490926 0.06543885 0.06195714 0.035374537 0.010022937 -0.079842746
-0.07032272 0.038125016 0.013323897 -0.07236216 -0.077107 0.05598539 0.0280028 0.05842722
0.06755158 -0.044921704 0.01598337 0.042415563 -0.070029356 -0.05352034 -0.0006339979 -0.08120459
-0.07797547 0.08172219 0.06797995 -0.013265 -0.056127913 0.08063006 -0.010673601 -0.027373299
0.06105514 -0.048054907 -0.029149618 -0.064369254 0.0040006037 -0.010633512 -0.06855105 -0.04047961
-0.08973196 0.07235829 0.08668753 0.022295022 0.057276815 -0.055319343 -0.008159317 -0.067653924
-0.07886726 -0.031756267 0.033281952 0.027249668 -0.019720824 -0.049981434 -0.052236356 -0.034779415
0.04527071 0.078101456 0.0641668 0.075067535 0.073735714 -0.08452181 0.076212555 0.08489826
0.040434025 0.01311292 -0.03130865 -0.0028803693 -0.013684593 0.02067781 0.05071151 -0.08083886
0.047694717 -0.008952593 -0.0418109 0.010912181 0.041668233 -0.011848572 0.057083577 0.028710138
-0.0014961342 -0.094488434 0.029415682 -0.075788334 0.00883631 0.04826331 -0.04416864 0.039089732
-0.0159016 0.0038221509 -0.004213542 -0.063625626 0.049495947 0.024931343 0.011325644 -0.013394303
0.047794912 0.034213442 -0.050915096 0.06061844 -0.02453555 -0.07963763 0.074499525 0.009095004
-0.02587388 0.044556998 0.021720748 -0.045062657 0.075547986 -0.005281477 0.0052465517 0.08647814
0.03890191 -0.053849526 -0.017732892 -0.051279876 0.03641311 -0.03595026 0.063746884 -0.038016886
0.08770331 0.008152866 -0.079736486 0.071435206 -0.041362867 0.01149219 -0.02842894 -0.08934724
-0.04323563 -0.016208658 -0.045937784 0.054290187 -0.024395086 0.07679127 0.089143224 0.07749759
0.084941305 -0.042616107 -0.09229847 -0.03393826 -0.06921792 -0.097372994 -0.06501622 -0.066792324
-0.021075144 -0.07278529 -0.04102333 -0.032768723 -0.055186164 -0.05258374 -0.06645923 0.072987616
-0.024095738 0.043890815 0.058613617 0.03977592 -0.08861038 -0.05184688 -0.026827019 0.036144327
0.050174642 -0.08438184 -0.08358956 -0.018499626 -0.086419895 0.03885708 -0.005499034 0.042887893

fc2.bias f4 [128]
00000000: ae0f 23bd 80f8 63bd 436c 5a3d f00f 80bd
00000010: 31b5 47bc e4fc d0bc fc64 1dbc ac53 e93c
00000020: 7d8b 753c c645 21bd 6afc 80bb ebb1 b0bd
00000030: f80d bebd 4b87 b3bd 48f5 683d 0f9f d43b
00000040: f8b6 c5bd 6be5 b4bd 7314 dabc 477e a5bd
00000050: be25 a93d c590 613b 699f 79bc 212a cbbc
00000060: d8bc 59bb a23e fb3c 4f7a f73c 319c b23c
00000070: 047c ccbc 65c2 8cbc de21 a53d 7a7b 0f3d
00000080: 6d65 7f3d 707a ebbb e35c ad3d 9997 25bd
00000090: bfad 7d3d 31cd 333d c4b7 d53c ed6d 573c
000000a0: 7787 9bbd 5b65 f13c 8c71 54bd 2037 9a3d
000000b0: 354b 24bd e361 7cbd a2d0 afbd 6403 c0bd
000000c0: c4e8 23bd 9139 30bd d2e6 afbd 9c42 433d
000000d0: aeaa 14bb 6b13 103d 3b0d e13c f8b6 bb3c
000000e0: b805 f13c 370b 13bd 5033 223d 678d c13c
000000f0: 7045 e93c 85f2 723d 4ebb 393d 21f0 b13d
00000100: 5519 1bbd 6151 02bc 31da 9a3d a31a 823d
00000110: d6fb 9b3d 45b7 5d3d fc21 073d 9dbc 96bc
00000120: 5538 453d 624c eabc c174 23bd 3339 5ebc
00000130: 9242 86bd 0bd0 423b 7223 d63c 3370 e8bb
00000140: dcce 6e38 1fa2 ebbc d388 7bbd 39a6 66bd
00000150: d53b 64bd 38a1 5fbd 11f0 0dbd 358d 9a3d
00000160: d874 c9bc c808 8dba 6c94 92bd e66f 56bd
00000170: 0c7b 303a 2b2e 85bc b89a e33a 2638 00bd
00000180: 7220 523d d452 c33c 0094 693d 1c57 89bc
00000190: 48b0 ccbd c8d1 313d e55d 5fbd 6601 633c
000001a0: 2370 d23d cfc0 343d 458e ac3d 7723 7b3c
000001b0: 0286 e4bc 6b28 a93d 620d 65bd dd47 25bd
000001c0: b653 b93d 7841 8fbd ab98 9c3d a41e 323d
000001d0: 56ab 36bd 33ac c7bc 77e0 363d 7407 a83c
000001e0: 3c3c 3bbd 7245 a1bd ded9 5abd f48c 82bc
000001f0: 71ef a5ba e5b7 4cbd 5299 2dbd 62fe df3c
-0.039809875 -0.05565691 0.053325903 -0.0625304 -0.0121891955 -0.025511213 -0.009606596 0.02848228
0.01498687 -0.03937318 -0.00393634 -0.08627685 -0.09280008 -0.087660395 0.056874543 0.006488688
-0.09654039 -0.088328205 -0.02662108 -0.08080726 0.08259152 0.0034418565 -0.01523576 -0.024800362
-0.0033224132 0.030669514 0.030209688 0.021802993 -0.024961479 -0.017182538 0.080631 0.035029866
0.062352587 -0.0071862265 0.08464982 -0.040427778 0.061933275 0.043896858 0.026088603 0.013148767
-0.07594197 0.029467275 -0.0518661 0.075300455 -0.040110786 -0.06161679 -0.085847154 -0.09375647
-0.040016904 -0.04302365 -0.08588947 0.047670946 -0.002268474 0.03517477 0.02747213 0.022914395
0.029421672 -0.035899367 0.039599717 0.023626996 0.028475493 0.059313316 0.045344643 0.08688379
-0.037865955 -0.007953973 0.07561148 0.06352737 0.07616393 0.054129858 0.032991394 -0.018400485
0.048149426 -0.028600875 -0.039906267 -0.013563442 -0.06555666 0.0029726054 0.026139949 -0.0070934533
5.6936275e-05 -0.028763829 -0.061409783 -0.056310866 -0.055721123 -0.05459711 -0.034652773 0.07546464
-0.024591848 -0.0010760063 -0.071572155 -0.05235281 0.00067322026 -0.016257366 0.0017364835 -0.031303547
0.051300474 0.023843206 0.05702591 -0.01676517 -0.099945605 0.043412954 -0.054532904 0.013855314
0.10275295 0.04412919 0.08425573 0.01532828 -0.027895931 0.08259662 -0.055920966 -0.040351737
0.0904917 -0.06994909 0.076463066 0.043486252 -0.044596992 -0.024374103 0.04464766 0.020511366
-0.04571174 -0.07874574 -0.05343043 -0.015936352 -0.001265986 -0.049980063 -0.042382546 0.027342979

fc3.weight f4 [1441, 128]
00000000: 2983 943d 0144 923d fad7 3abd 6fad c43d
00000010: 00ad b83d d229 213d 6a63 4abd a7d8 c73c
00000020: 996b 16bc 03ec 5fbc de70 96bd 04c4 1b3c
00000030: 90c4 aabd 4e4f 56bd 9f78 883d d719 8ebd
00000040: f21b 12bd 31e5 b2bc bf57 273c bc9f 74bb
00000050: ba46 95bd 6276 7d3d fed0 813d 7384 223d
00000060: a645 a4bc 19db a4bd e359 903b cbd3 3dbd
00000070: ae86 803d ffc9 abbd 4cd2 64bc 97c5 a2bc
00000080: 5643 7d3c be76 fabc 1f47 833c 5b77 753b
00000090: f171 8ebd 5542 22bd cb1d 323d f500 9cbd
000000a0: 4085 6fbc 3b6e ab3d bc6c be3c 0c98 303d
000000b0: 9b57 8fbd d861 9bbc 575d 8fbd 15ce a23d
000000c0: 9e38 583c 5fef b8bc e8ea 95bd 6b05 ae3d
000000d0: abcd be3c 71ea 5e3c ab25 c23d bb0c 8bbd
000000e0: ce25 9a3d 2ccf 583d 256f ed3c 5370 4a3c
000000f0: 82d6 e13c 589e 7abd e51e 40bd c959 d6bc
00000100: b929 92bd abae 6bbc cf96 7e3d 568b 6fbd
00000110: 4746 a4bd 4c97 9c3c fb08 49bd fd0f 52bd
00000120: f5f3 a4bc 4121 8d3d 54ca 8e3c 66dd 84bd
00000130: fdbf 0c3c f7d2 63bd 381d 86bd 5679 e43a
00000140: 402f 3d3c 73c6 7ebc 2ef8 833d 6e96 4b3d
00000150: cbad c6bc d55b 9a3c a8bc 06bd 278f b03d
00000160: 181a 023c e00d af3d a0d5 d6bc 0426 5fbc
00000170: 894d 853d 750e c83b d0f7 923d 84cb 47bd
00000180: 122a 753d 0b3e 833d cba8 843d 689d 4fbd
00000190: 3603 2ebd 4b1c a3bd fd30 aabc 0b97 06bc
000001a0: 2c9d a53a 9753 09bc 07fe 89bd 2b6d a9bd
000001b0: 319f 563d 097f 2d3d 186c b738 4560 413d
000001c0: d2a4 703d 1e9c bb3d e4a2 853d 805a 84bd
000001d0: 5bcc 1d3d 791a 953c 42a4 3bbd 6270 71bd
000001e0: 7cf6 86bd 63de bb3d 0aa9 803d 6327 b93d
000001f0: 1da8 ca3c 9bf1 323d 7ac5 a03d 050d 013d
00000200: 7576 683d f8b8 9e3b e67a 193d 3d02 14bd
00000210: 6031 e93c 8e37 8ebd a1b0 91bd 4670 a7bb
00000220: aa08 52bd 7449 13bd 8134 d23b 36f8 a1bd
00000230: ea72 8abd 806a ad3b 1bd5 3abd 3101 393c
00000240: 41be 813d a161 e73c 2781 ae3c 7d16 b4bd
00000250: a901 2f3c 800b 8dbd 8954 813d c734 103c
00000260: 4918 93bd 56f0 973d e0a6 a1bd 2b2d 71bd
00000270: 385c 55bc 77ca 0d3d 67f6 853d 3415 c63c
00000280: c730 e3bb 5066 8abd b05d 3dba 5802 81bd
00000290: 31e8 1dbc 156b 1eb9 58f2 afbd 2ec2 9ebd
000002a0: 202f 983d db19 12bd 3676 5dbd fa3c 06bd
000002b0: 0764 253c 353c b6bd 6861 8abd 9976 2cbc
000002c0: 760c 8cbd f86e 8ebc 1a57 1e3c 523f 2abc
000002d0: 9611 3f3d 4585 2cbd 19ee 3c3d 0589 26bd
000002e0: 7a04 01bd ec63 1c3c 1959 823d 7c49 20bd
000002f0: de10 153d 6174 7f3d c2da 7b3c deec dfbc
00000300: 1dc6 0f3d 3f1c 7c3b a0b6 14bd ce60 b7bd
00000310: 82fe aebd baf6 8abd ec6a 80bd 6d11 45bd
00000320: 166d a13d e4d2 333d 63d0 cd3d 2ce1 c4bd
00000330: 8f7e fbbc 974f 99bd d22f 0abd a107 a2bc
00000340: 07bc 563d 0b20 9a3d 2544 2a3d e9e3 733c
00000350: 8b4f f1bc 5b4a 24bd 1a9a 94bd 53d0 7e3d
00000360: 32dd 003d c482 723d 3afc 10bd 5cb4 85bd
00000370: 4ef4 cbbc 8fe8 3e3d a289 e63b 1716 f73c
00000380: bb96 603d f56a 4bbd f3b2 99bd fe5c 9a3d
00000390: 48ad c7bc d7ef 083d 68c5 583d 28b2 5a3d
000003a0: 4521 6fbd 7061 0d3d 1e9d 80bc 5dcd 11bd
000003b0: 8f17 43bd 534f 46bd de9b 5abd ea00 3e3d
000003c0: 015a abbc 718c a4bd 11f2 023d 6bf9 01bd
000003d0: 5791 773c 7075 78bd 4ea8 85bd bf77 56bb
000003e0: dce2 c7bc 4453 ea3c c36d a5bc 3fc3 903d
000003f0: ab93 70bd 23da 81bd 3f0f b23d 44c9 923d
0.07251579 0.07141877 -0.045616128 0.09603392 0.09017372 0.039346524 -0.049411215 0.0243953
-0.009180927 -0.013667109 -0.073457465 0.009507183 -0.083382726 -0.052321725 0.06663632 -0.06938522
-0.035671182 -0.021837803 0.010213791 -0.0037326654 -0.07288881 0.061880477 0.0633869 0.039677095
-0.020052742 -0.08049602 0.0044052466 -0.04634456 0.06275688 -0.08388137 -0.013966154 -0.019869609
0.015457949 -0.030574199 0.016025124 0.0037455175 -0.06955326 -0.03961404 0.043485444 -0.0761737
-0.014619172 0.08370634 0.023245208 0.043113753 -0.06999131 -0.018967554 -0.07000225 0.07949463
0.013197092 -0.022575079 -0.073201954 0.08497127 0.02329143 0.0136057 0.09479841 -0.067895375
0.07526742 0.05293195 0.028983662 0.012355882 0.027568106 -0.061186165 -0.046904463 -0.02616586
-0.07136864 -0.014384906 0.06215554 -0.05848249 -0.08021217 0.019115113 -0.04908083 -0.05128478
-0.020135859 0.06891108 0.017430462 -0.06487541 0.008590695 -0.055621114 -0.06548542 0.001743118
0.01154691 -0.015550244 0.06443821 0.049704008 -0.024252793 0.018842617 -0.03289476 0.08621054
0.007940792 0.08547568 -0.026224911 -0.0136199035 0.06508929 0.006105239 0.07176173 -0.048778072
0.059854575 0.06408318 0.06477507 -0.050687224 -0.04248353 -0.07964381 -0.020775313 -0.008214722
0.0012635342 -0.008381746 -0.06737905 -0.08272775 0.05239791 0.04235748 8.746254e-05 0.04721095
0.058750935 0.09160636 0.065252095 -0.06462574 0.038524967 0.0182011 -0.045810945 -0.058945067
-0.06589982 0.09173276 0.06282242 0.090407155 0.024738366 0.043687444 0.07850166 0.031506557
0.056753594 0.0048438273 0.03747072 -0.036134947 0.028465927 -0.0694419 -0.071137674 -0.0051098196
-0.051277794 -0.035958722 0.0064149504 -0.079086706 -0.06760199 0.005292237 -0.04561339 0.011291788
0.06335116 0.028244795 0.021301819 -0.08793352 0.010681548 -0.06886959 0.06314952 0.008801646
-0.071823664 0.07418887 -0.07893157 -0.058880966 -0.013022475 0.034616914 0.06541138 0.024180032
-0.006933305 -0.06757796 -0.00072237384 -0.06299275 -0.009637878 -0.00015107945 -0.08591145 -0.077518806
0.074308634 -0.03566919 -0.054067813 -0.032772996 0.010094649 -0.08898202 -0.0675686 -0.010526323
-0.06838314 -0.017386898 0.009664321 -0.010391073 0.04664763 -0.042119283 0.046125505 -0.040658016
-0.03149841 0.009545308 0.0636465 -0.03913258 0.03639304 0.062366847 0.01537198 -0.027334627
0.035101045 0.0038468984 -0.036306977 -0.08954011 -0.08544637 -0.067853406 -0.06270394 -0.04811232
0.078821346 0.043902293 0.10049512 -0.096132606 -0.030699996 -0.07485884 -0.03373701 -0.019779028
0.05242541 0.07525643 0.041568894 0.014885881 -0.029456874 -0.040109973 -0.07255955 0.062210392
0.03146095 0.05920674 -0.035396792 -0.065285414 -0.024896767 0.046608504 0.00703545 0.0301619
0.054831248 -0.04966255 -0.07504835 0.07537268 -0.02437462 0.033431854 0.052922636 0.05339256
-0.058381338 0.03451675 -0.01569992 -0.03559624 -0.04762989 -0.048415493 -0.053371303 0.04638759
-0.02091694 -0.080345996 0.031969134 -0.031732004 0.015110335 -0.060658872 -0.06526242 -0.0032725183
-0.024400167 0.028604157 -0.02019394 0.0706849 -0.058734577 -0.063404344 0.08694314 0.071672946

fc3.bias f4 [1441]
00000000: 433b 6d3d 2013 8cbd 2c22 6e3d 962b a23d
00000010: 79b3 693d a230 d13d 3b08 233d ef77 f03b
00000020: 3348 8fbd fa65 213d da80 aa3c 2eee 84bd
00000030: 451f 26bd 331c 93bc b155 49bd 74f2 6cbc
00000040: a64d 7abc 16ef 71bd b32c 603d 095e 91bc
00000050: 21f2 b7bb 3e29 17bc 9125 b43d 763d bdbb
00000060: bdc1 623d 32d3 cb3c a9e0 633d ed10 913d
00000070: 9526 af3c 271c ba3c df08 d6bc 0cc9 71bd
00000080: f771 c0bc f4c1 183d c06b 77bd fed8 91bd
00000090: e127 303c 96a9 0e3d a8e9 823d 6976 ccbc
000000a0: 4835 d4bd ad82 403d 2be4 9d3d be13 57bc
000000b0: df95 9bbd 05d8 013d 1a58 5e3d 9989 37bd
000000c0: 53e2 4fbd f060 603d 1806 d93b 9833 763c
000000d0: f41c 56bc 02dc 9bbd b142 1d3d ad7a 5c3d
000000e0: 8ba1 173b 7a45 ad3d 8e41 05bd cf3c 7f3d
000000f0: 7e26 763d d981 843d dec6 92bd 8eb9 19bd
00000100: c963 83bd 6984 80bc d7bb 733d 8845 b03d
00000110: e998 83bd 7f58 fdba e5e9 8fbd f3b4 2ebd
00000120: 7c5e 993b efed c73c 9510 963c 783b 95b9
00000130: 6c74 8ebd e584 8e3d 0eb3 5b3d 1029 54bc
00000140: 6f27 0ebd b426 af3c e312 0dbd 9355 883d
00000150: a8b0 413d a471 2cbd 4435 bd3d a39d 52bd
00000160: 4a83 a93d 48a6 57bd b9a7 493d 29ac d5ba
00000170: 8f93 b6bc 53f2 aa3d f384 953c 6e68 233d
00000180: 2a1b c23d af2c 8e3d 127d fabc b958 9a3d
00000190: 29fc aabd 9eec b1bd f36f f13c 9428 cc3b
000001a0: 8abe 713d 9e18 733d 692d 8d3d 28d8 cabd
000001b0: 9aa5 d53c 83c4 18bd 964a 93bd 1bbe 653b
000001c0: 304b 52bd f502 593d 9c52 50bc 8dc8 093d
000001d0: 28de 48bd 019a 6b3d 1e69 90bc 76c0 bdbd
000001e0: 0b88 c43c e609 3dbd c443 083d fa5a 73bd
000001f0: 1e67 1ebd c496 5ebd fdfe bebd 2dfc d0bd
00000200: fc90 a7bd 0b90 9c3c 2b14 ec3c 7233 a5bd
00000210: 215e 893d a558 ecbc f4f5 2c3c d028 44bb
00000220: 5b0f 393c eb09 6f3d 3adc 9e3d 0be5 b9bd
00000230: 2515 5c3c febf 01bc a727 7c3c 6df7 eebb
00000240: 6c2e 163d a218 2fbc ed63 d3bc af11 443d
00000250: 0646 bd3d 5f4d 88bc cf06 833c b675 ae3d
00000260: 0e6b f7bb 24d0 9cbd ca09 cabc 631e 0e3d
00000270: a706 823d 8455 80bd 20a7 7c3d 577a bf3d
00000280: 4688 b83c 9060 0d3d e543 7ebc 4fe8 9f3d
00000290: d7f5 80bd efa3 373d 6072 923c 43ff b2bc
000002a0: b8c2 343d e3fc 1f3c 9692 88bd 8316 08bd
000002b0: 1505 8bbd 8222 5d3d 1210 40bc d2ae c03a
000002c0: 8b48 a13d 6e87 143d 1930 dbba 913a 59bd
000002d0: 7685 6d3b d964 0abd 8d41 9dbd 71d6 9a3c
000002e0: fd0d 27bc cb62 c5bb 9a24 b8bd 48a5 863d
000002f0: 19c4 97bd feb1 893d 67dc 16bc c598 da3d
00000300: 4318 1d3c 1426 503c 0344 90bd 6770 92bd
00000310: 31a3 733d c1f2 563d 9b3d 2f3d d2fd 843d
00000320: f07d 7cbc 3c04 5bbd f550 44bd 1c7e 9f3d
00000330: 3c30 6abd 1116 853d 4302 ef3a 8774 df3c
00000340: 1e6c b03c 65d7 1abd 4db9 1b3c b396 8eba
00000350: 1e53 833b fd2e 3f3d cc3f 0cbd a137 74bd
00000360: 0bdf 293d bc13 a1bd 2468 343d 9ae6 6fbd
00000370: 6a5c 63bd 5d09 d93b 2009 8b3d 8b7b a23c
00000380: a173 803d 4401 453d 92e9 4c3d c585 9fbc
00000390: 263d b1bb 459c 3d3d 19f4 29bd 76f8 963c
000003a0: adbe c23d 831f 8bbd c079 933c d12c f8ba
000003b0: 8249 5e3d 386c f43c 2eef cebb e010 0abd
000003c0: a22a cb3d 79fa 893d 80d0 acbd 800e 3ebd
000003d0: 62d1 0dbd acdc 18bd e6c7 593c 3163 5ebb
000003e0: 44b1 8fbd 91b5 7bbd 5c25 0d3d 7217 353c
000003f0: d0dc ddbc 828e a9bd 91d4 483c f31e 343d
0.057917845 -0.06839585 0.058138058 0.079184696 0.057055924 0.10214354 0.03980277 0.007338516
-0.06996193 0.039403893 0.020813394 -0.06490742 -0.040557165 -0.017957782 -0.049153987 -0.014462102
-0.015277302 -0.0590659 0.05473013 -0.017745035 -0.005613581 -0.0092261415 0.08796228 -0.005775149
0.055360544 0.02488098 0.055634174 0.070833065 0.021380702 0.022718502 -0.026127277 -0.059029624
-0.023491843 0.037294343 -0.060405493 -0.07121466 0.010751695 0.0348297 0.06392223 -0.024958806
-0.10361725 0.046999622 0.07709535 -0.0131272655 -0.07596945 0.031700153 0.05428324 -0.044808958
-0.05075295 0.054779947 0.006623041 0.015026949 -0.013068426 -0.076103225 0.03839368 0.05382793
0.0023137059 0.08460517 -0.03253322 0.06231385 0.060095303 0.06470079 -0.07166837 -0.037530474
-0.06415517 -0.015688138 0.05950531 0.08607012 -0.0642565 -0.0019328742 -0.07027034 -0.042653035
0.004680453 0.024405448 0.018318454 -0.00028463802 -0.069557995 0.06958941 0.053637557 -0.012949243
-0.034705576 0.02138076 -0.03444184 0.06656947 0.047287613 -0.042100564 0.09238675 -0.051419865
0.082769945 -0.052648813 0.04923222 -0.0016301918 -0.022287158 0.08347001 0.018251872 0.039894514
0.094778374 0.069421165 -0.030577216 0.07536454 -0.08348877 -0.08687709 0.029472327 0.006230423
0.059019603 0.05934965 0.06893427 -0.0990451 0.026079942 -0.037296783 -0.071919605 0.0035055939
-0.051341236 0.052981336 -0.012715008 0.033638526 -0.04903999 0.057519916 -0.017628249 -0.09265225
0.023990652 -0.046152018 0.03326775 -0.059412934 -0.03867256 -0.054343 -0.09325979 -0.10204349
-0.081819504 0.019111654 0.02881821 -0.08066453 0.06707407 -0.028850863 0.010556687 -0.0029931553
0.011295165 0.058359068 0.07756849 -0.090768896 0.013432776 -0.00791931 0.015390313 -0.007292679
0.036665365 -0.010687025 -0.025804484 0.047868427 0.092418715 -0.016638456 0.015994458 0.08518545
-0.0075506037 -0.07656887 -0.02466287 0.034696948 0.06348925 -0.06266311 0.06168282 0.09349506
0.022525918 0.034515917 -0.015519117 0.07807981 -0.0629689 0.044834074 0.017876804 -0.021850234
0.04413101 0.009764883 -0.06668584 -0.033224594 -0.06788079 0.053987987 -0.011722581 0.0014700538
0.078751646 0.03626197 -0.0016722708 -0.05303437 0.003624288 -0.033787582 -0.076785184 0.018901082
-0.010196206 -0.00602374 -0.08991356 0.06574494 -0.074104495 0.067234024 -0.009207821 0.1067367
0.009588304 0.012704391 -0.07044222 -0.07150345 0.059481803 0.052477602 0.04278336 0.06493725
-0.015410885 -0.053470835 -0.04792877 0.07787725 -0.057174906 0.064983495 0.0018234927 0.027277244
0.02153593 -0.037803072 0.009504628 -0.0010878652 0.004007711 0.04667567 -0.03424053 -0.059623364
0.041472476 -0.07865092 0.04404463 -0.05856953 -0.055508055 0.0066234306 0.0678885 0.0198343
0.062720545 0.04809691 0.050027438 -0.019472966 -0.005408901 0.04629161 -0.041492555 0.018429022
0.09509025 -0.0679312 0.01800239 -0.0018934255 0.05426932 0.029836759 -0.0063151335 -0.0337075
0.09920241 0.06737227 -0.08438206 -0.046400547 -0.03462351 -0.037319824 0.013292288 -0.0033933634
-0.070162326 -0.061452452 0.034459457 0.011052953 -0.02708283 -0.08279134 0.012257711 0.043974828
