Assets/ONNX/2P_PPO_Builtin.onnx (onnx, 449220 bytes, 6 tensors)

fc1.weight f4 [128, 100]
0.038697664 -0.004809482 0.04536202 0.0797021 -0.045548335 0.023143532 -0.042302605 -0.092046864
-0.072703116 -0.10331115 0.021205366 -0.11853949 -0.12839016 0.075850315 0.01896085 0.005457413
0.039161734 -0.07314086 -0.03887492 -0.12572141 -0.01357703 -0.030909013 -0.018094603 -0.10539946
-0.10593465 0.02507897 -0.0009866245 -0.024042774 -0.064548664 -0.044272423 0.088656366 -0.09205798
0.08173349 0.08695764 0.05056944 0.037685506 -0.089967 -0.12795106 -0.09617144 -0.007015164
0.037484962 0.03387464 -0.006732424 0.055826817 -0.096133806 -0.06147064 -0.15683477 -0.13821076
0.0152244475 -0.029074974 0.031466033 -0.118266396 0.033931445 0.0742918 -0.029447367 -0.01800321
-0.10978136 -0.038523763 0.09499621 -0.07633742 0.0017334792 -0.006200255 0.037642807 0.069555186
0.07479429 -0.00855245 0.043740336 -0.06684658 0.10987726 -0.072407976 -0.04510694 0.0026332217
0.048222195 -0.032977793 0.061088715 0.043968767 0.0041658264 0.008303771 -0.115900286 -0.09966742
-0.0040593934 -0.06117232 0.030296158 -0.0950297 -0.07057807 -0.04238656 -0.05807475 0.050600216
-0.019229228 -0.01565182 0.001943692 -0.055553183 0.00035953877 -0.040804822 0.05287735 -0.043041866
0.0029952365 -0.077613235 -0.046279673 -0.048369654 -0.041243598 -0.050857488 -0.04718512 0.11241241
-0.01829193 0.08118445 0.03576697 -0.032225516 0.021365033 -0.038223334 0.015930388 0.009329093
0.07161098 -0.010270661 -0.022801394 0.051655233 0.06676121 -0.09212341 0.10210452 -0.01928024
0.036100306 -0.045934908 -0.004744902 -0.002185976 0.055493917 0.10422818 0.058559213 0.1178806
-0.037591826 0.0948478 -0.011165046 -0.0018595447 0.06409305 -0.020855077 0.09524734 0.044554442
0.08857567 0.09232915 -0.03560504 0.04367383 0.09579853 0.15604657 0.022759069 0.058491662
0.07454091 -0.04332076 -0.0025966938 0.049914915 -0.035329424 -0.04127332 0.09545065 -0.06679553
0.006117034 0.116580844 0.002526565 0.01363921 0.021357704 0.12396772 0.045051448 0.059746616
-0.017156523 -0.039350796 -0.026100306 0.10432057 0.014301104 -0.057464 0.10019543 -0.049520664
0.10618858 0.046900522 0.030935893 0.004673304 0.080675684 0.019394692 0.05129341 0.018771484
-0.03445373 0.02927309 0.033130724 -0.058585625 0.015314484 0.029126206 -0.03780825 0.07495728
-0.034598313 -0.01427451 0.029795589 0.021301389 -0.078150965 0.043896604 -0.048918515 0.10196738
-0.01077042 -0.04787573 0.10166913 0.11570884 0.1090147 -0.007792507 0.020776711 0.062836595
0.022207564 -0.051780194 0.00078114064 -0.03373667 0.10739799 0.04702887 -0.084302366 0.0950642
-0.04079325 0.06010815 -0.09432028 0.0372163 0.0029901213 -0.061206497 -0.00637955 0.08338272
-0.063235186 -0.0724276 0.0889707 -0.059257716 -0.060718928 0.08709123 -0.08760967 -0.07342783
0.099274 -0.05892198 0.06576115 0.05275448 0.0075945184 0.0012041132 -0.06449137 0.063216805
0.008611483 0.070313975 -0.031263795 0.1027771 0.035703994 -0.010398165 -0.056843612 -0.08050015
0.019464418 -0.08418561 0.06888685 -0.022860074 0.0763025 -0.025430435 0.08532109 -0.024768496
0.052901454 0.038541052 -0.07534621 -0.080147356 -0.030804148 0.04289397 0.0027898313 -0.044202305
00000000: 7181 1e3d dc98 9dbb 87cd 393d db3a a33d
00000010: e490 3abd 8197 bd3c 7f45 2dbd 1183 bcbd
00000020: 5fe5 94bd cc94 d3bd e0b6 ad3c d5c4 f2bd
00000030: b678 03be 6957 9b3d c953 9b3c 19d4 b23b
00000040: 0e68 203d e0ca 95bd 4f3b 1fbd 1dbd 00be
00000050: 3172 5ebc e634 fdbc 223b 94bc acdb d7bd
00000060: 44f4 d8bd 6972 cd3c a051 81ba 5af5 c4bc
00000070: 1732 84bd 0057 35bd 7891 b53d e588 bcbd
00000080: e363 a73d d916 b23d e721 4f3d 1e5c 1a3d
00000090: 9e40 b8bd 9a05 03be 88f5 c4bd 76df e5bb
000000a0: d589 193d 22c0 0a3d aa9b dcbb a9aa 643d
000000b0: cde1 c4bd a3c8 7bbd 4b99 20be 1f87 0dbe
000000c0: f66f 793c a42e eebc 87e2 003d a735 f2bd
000000d0: b3fb 0a3d 4d26 983d 9b3b f1bc 787b 93bc
000000e0: 0dd5 e0bd 18cb 1dbd 5f8d c23d cb56 9cbd
000000f0: e935 e33a 822b cbbb 582f 1a3d f372 8e3d
00000100: c02d 993d 931f 0cbc 1129 333d dce6 88bd
00000110: 5407 e13d a24a 94bd 0ec2 38bd 2192 2c3b
00000120: a384 453d b913 07bd 2938 7a3d 9818 343d
00000130: 7c81 883b 8a0c 083c 215d edbd 6f1e ccbd
00000140: a904 85bb d48f 7abd a62f f83c ee9e c2bd
00000150: 3c8b 90bd 889d 2dbd cadf 6dbd 2c42 4f3d
00000160: 9d86 9dbc 3f38 80bc 7bc3 fe3a bc8b 63bd
00000170: 7a80 bc39 f522 27bd ec95 583d ab4c 30bd
00000180: bb4b 443b b0f3 9ebd c18f 3dbd 421f 46bd
00000190: 0cef 28bd f14f 50bd 2f45 41bd 7a38 e63d
000001a0: f5d8 95bc 0844 a63d 6380 123d e7fe 03bd
000001b0: b905 af3c 1290 1cbd 7280 823c 0dd9 183c
000001c0: c7a8 923d 4646 28bc fdc9 babc 7094 533d
000001d0: 1aba 883d 33ab bcbd 2d1c d13d 98f1 9dbc
000001e0: eadd 133d 3e26 3cbd 1f7b 9bbb 9742 0fbb
000001f0: 974d 633d 9675 d53d c9db 6f3d 626b f13d
00000200: e3f9 19bd 903f c23d 99ed 36bc f7bb f3ba
00000210: 3843 833d 44d8 aabc 0a11 c33d b87e 363d
00000220: 2967 b53d 1117 bd3d 97d6 11bd 54e3 323d
00000230: 0532 c43d acca 1f3e 3a71 ba3c f494 6f3d
00000240: e8a8 983d 1c71 31bd 4b2d 2abb 9573 4c3d
00000250: 96b5 10bd 360e 29bd a17b c33d 18cc 88bd
00000260: 6671 c83b f0c1 ee3d ba94 253b fe76 5f3c
00000270: 5af6 ae3c cae2 fd3d de87 383d deb8 743d
00000280: d68b 8cbc 4d2e 21bd 4fd0 d5bc 06a6 d53d
00000290: 2d4f 6a3c 5f5f 6bbd 4333 cd3d 2ed6 4abd
000002a0: 6679 d93d c31a 403d 456d fd3c 8422 993b
000002b0: 4b39 a53d 9ee1 9e3c 0a19 523d a8c6 993c
000002c0: 5b1f 0dbd 1fce ef3c 15b4 073d 7bf7 6fbd
000002d0: 9ae9 7a3c 159a ee3c d3dc 1abd 3483 993d
000002e0: f6b6 0dbd a2df 69bc e115 f43c 4080 ae3c
000002f0: 9d0d a0bd edcc 333d c85e 48bd 46d4 d03d
00000300: 6a76 30bc 5719 44bd e837 d03d c2f8 ec3d
00000310: 1943 df3d 4958 ffbb ec33 aa3c 79b0 803d
00000320: a3ec b53c 7817 54bd 76c5 4c3a 762f 0abd
00000330: 7af3 db3d 58a1 403d b8a6 acbd 05b1 c23d
00000340: d316 27bd f733 763d fe2a c1bd 1e70 183d
00000350: e9f5 433b aab3 7abd 8b0b d1bb 8fc4 aa3d
00000360: 7381 81bd ec54 94bd 4536 b63d 38b8 72bd
00000370: 69b4 78bd e35c b23d b36c b3bd 5561 96bd
00000380: 2b50 cb3d 2d58 71bd c8ad 863d 1515 583d
00000390: 70db f83b 56d3 9d3a 0d14 84bd d077 813d
000003a0: 2d17 0d3c c600 903d 770e 00bd cd7c d23d
000003b0: 5a3e 123d 115d 2abc d9d4 68bd 43dd a4bd
000003c0: d873 9f3c 8169 acbd 8c14 8d3d 0d45 bbbc
000003d0: 7c44 9c3d 7d53 d0bc d3bc ae3d 4de7 cabc
000003e0: 32af 583d 39dd 1d3d 1d4f 9abd 4c24 a4bd
000003f0: fb58 fcbc 96b1 2f3d 9ad5 363b 7a0d 35bd

fc1.bias f4 [128]
0.004931217 0.03416994 0.07376949 0.08283458 -0.08369388 -0.043479074 0.022828115 -0.053512845
-0.01593885 0.05278186 0.008528307 0.054966837 0.017457092 -0.013220757 -0.08814547 0.098534904
0.076613955 0.026089542 -0.047684953 0.08868284 0.023626512 -0.023075351 -0.027657593 -0.118470214
-0.01237481 -0.081655435 0.08085258 -0.055356678 0.041079152 0.018626232 0.06820411 0.02230089
0.06706864 0.07253897 -0.03883216 -0.05552309 -0.06720748 0.04740143 0.07021536 -0.03682708
0.029179914 0.08304374 0.056967225 0.08757463 0.061907537 -0.114496246 -0.023386154 0.026466612
0.0346967 0.07710438 -0.028575592 0.054656774 0.091352 -0.068660915 0.088073626 0.036237516
-0.10512709 -0.09565477 -0.04660861 0.070494436 0.0033812926 -0.09131375 0.0076003815 -0.040198006
0.0634535 0.08143469 0.047116205 -0.102131724 0.025801249 0.045174576 -0.07342874 -0.0024093795
-0.020468066 0.099052124 -0.020292606 -0.08345324 -0.030875668 0.050180797 -0.002911923 -0.03234252
-0.046164513 0.029214913 0.026832158 -0.016072894 -0.060661044 0.06278092 0.060634375 0.00247272
-0.05539396 0.05396454 -0.068911724 0.070707865 -0.03974559 -0.01846275 0.058430403 0.10662677
0.08841611 0.007728598 -0.061335146 0.106907934 0.10988613 -0.026557658 -0.1345946 0.041439902
0.0922944 -0.0065718777 0.098509274 0.09860476 -0.032101512 0.045932226 0.0044085137 -0.01629854
-0.021928998 -0.01415654 -0.04418531 -0.100443184 -0.1163926 -0.031745333 0.039994925 0.029796254
-0.05103867 -0.012601013 0.0382609 -0.0046073077 0.09829377 0.08090435 0.03684119 -0.053819846
00000000: 0c96 a13b c7f5 0b3d 7514 973d 2da5 a93d
00000010: b267 abbd 1d17 32bd 0702 bb3c 4930 5bbd
00000020: 3192 82bc cb31 583d 50ba 0b3c e824 613d
00000030: 2d02 8f3c e09b 58bc 9d85 b4bd abcc c93d
00000040: c7e7 9c3d bcb9 d53c 4c51 43bd 599f b53d
00000050: 638c c13c 8508 bdbc 2d92 e2bc 83a0 f2bd
00000060: b7bf 4abc f73a a7bd 0a96 a53d afbd 62bd
00000070: 9d42 283d 0a96 983c 99ae 8b3d 5bb0 b63c
00000080: 485b 893d 508f 943d 790e 1fbd 2e6c 63bd
00000090: 13a4 89bd 0028 423d 12cd 8f3d fed7 16bd
000000a0: b70a ef3c d612 aa3d 7756 693d 545a b33d
000000b0: c292 7d3d 027d eabd 5294 bfbc 82d0 d83c
000000c0: 201e 0e3d e7e8 9d3d 5c17 eabc c8df 5f3d
000000d0: c216 bb3d 189e 8cbd f25f b43d ca6d 143d
000000e0: df4c d7bd a6e6 c3bd abe8 3ebd 635f 903d
000000f0: ad98 5d3b b402 bbbd 9f0c f93b aaa6 24bd
00000100: e9f3 813d 3bc7 a63d ecfc 403d 702a d1bd
00000110: 245d d33c fa08 393d cf61 96bd aee6 1dbb
00000120: a5ac a7bc d7db ca3d ae3c a6bc 88e9 aabd
00000130: f8ee fcbc 618a 4d3d f6d5 3ebb 9779 04bd
00000140: 0017 3dbd 1d54 ef3c 1dcf db3c 4dab 83bc
00000150: b777 78bd 4893 803d c05b 783d 5c0d 223b
00000160: c7e4 62bd ec09 5d3d 9721 8dbd 49cf 903d
00000170: 46cc 22bd 313f 97bc b854 6f3d 235f da3d
00000180: 8113 b53d 2e40 fd3b 903a 7bbd 8cf2 da3d
00000190: fb0b e13d 728f d9bc 2bd3 09be e3bc 293d
000001a0: d904 bd3d e858 d7bb 3bbf c93d 4bf1 c93d
000001b0: e07c 03bd 6e23 3c3d 4b75 903b 8484 85bc
000001c0: 71a4 b3bc d5f0 67bc a8fb 34bd 28b5 cdbd
000001d0: 3e5f eebd 6507 02bd b8d1 233d 4617 f43c
000001e0: ed0d 51bd 7b74 4ebc 76b7 1c3d e6f8 96bb
000001f0: 3e4e c93d 2eb1 a53d cae6 163d 3372 5cbd

fc2.weight f4 [128, 128]
0.0040139155 0.04550603 0.017169539 -0.0015347027 0.051536303 0.049293395 0.07098132 -0.00034065984
0.04493884 0.06046024 0.020869266 -0.072641805 -0.037777342 -0.081027225 -0.034086306 0.06870512
0.023387415 -0.047227897 -0.01741339 -0.06401113 -0.03925497 0.038463883 -0.07536605 -0.052199412
0.034785196 0.015091711 -0.09350622 0.07845598 0.044088934 -0.075328365 -0.037129063 0.042311985
-0.08839057 0.07673783 -0.006207081 -0.016591301 0.0050365725 -0.05596591 0.0056367083 0.07645698
0.062444348 0.05351709 -0.01197561 -0.08542649 0.037201326 -0.0770398 0.049503777 -0.07936043
-0.031785622 0.053643417 0.042504273 0.079325154 -0.06418343 0.03581278 -0.03434176 -0.027194157
0.020946352 -0.06709113 0.057828683 -0.06686209 0.074241735 -0.021578817 -0.05427116 -0.018696079
-0.059506357 0.047676403 -0.090404116 -0.08839487 0.021758879 0.029962372 -0.0661272 0.016822211
0.046977445 0.05879522 -0.09259324 -0.035017256 -0.04524828 0.05055842 -0.044551183 0.02893262
0.065016456 -0.049423665 -0.068211526 -0.020481914 0.0051527205 0.032742124 0.015151315 -0.0066266395
-0.058816027 -0.018327156 -0.05431974 -0.050512377 -0.029277617 0.06770365 -0.07834291 -0.05620256
0.095589116 -0.09155527 -0.03640817 -0.035397567 -0.080923975 -0.011365063 0.08361048 0.0015713838
-0.00972098 0.025778657 0.030624574 -0.0027192314 -0.021298232 -0.0773919 -0.05113722 0.0070805117
0.060318165 -0.035706036 0.011626634 0.034815006 -0.07238704 -0.066070676 -0.04866398 -0.0283366
0.018485984 0.05657154 -0.057448566 0.016926691 -0.061566412 -0.009634356 0.059556413 -0.09157795
0.014058669 0.069647275 0.051275697 -0.06038722 -0.08481243 0.015092228 0.068069816 -0.004762986
0.02897933 0.11774536 0.076972336 0.034601074 0.009326551 -0.03839048 -0.08507219 0.017118618
-0.051697854 0.058674328 -0.06159624 0.021454498 0.06161985 0.06836262 -0.08727413 -0.02906876
-0.10712675 0.009598328 0.020103335 0.0068696477 0.013599082 0.061365444 -0.0095246695 0.082675524
-0.0063232346 0.018219385 0.081630364 0.07503228 0.011422354 -0.02376057 0.0912544 0.0673584
-0.013951088 0.03442259 0.07660749 0.091163665 0.023411548 0.07518787 0.012012821 -0.013502107
-0.050222747 0.048745185 0.09668241 0.010300157 0.06940891 0.09670937 -0.01628371 0.013701243
0.049268164 0.07361539 -0.067921326 -0.023634639 -0.038128227 -0.039145846 -0.07668096 0.10523676
0.042979747 -0.08952185 -0.073895276 0.008170709 -0.030790487 -0.03131867 -0.111227445 -0.04304384
-0.009662414 0.022068214 0.06990754 -0.0363832 0.07880672 0.053663783 0.08333069 -0.057032783
0.06835683 -0.021941746 -0.060052138 0.12776494 0.0748181 0.056240227 -0.028537242 0.09440199
0.03172133 -0.067853324 -0.0022549694 0.0030668506 -0.017204963 0.004450245 0.06932826 -0.024498845
-0.094913445 -0.019001197 -0.053067148 -0.035072178 -0.0261328 0.104575485 0.036589086 0.0024683783
0.06878143 -0.05472108 0.06180525 0.074858785 -0.08729264 0.040599808 0.04833938 0.03459602
0.048625994 0.028781718 0.0069672363 -0.062851824 0.012066447 0.07652999 0.023577908 0.013065956
0.0066585303 0.09989335 -0.0431866 0.0050677527 0.08043003 0.095426895 0.08236881 0.09276278
00000000: 2a87 833b 8864 3a3d 22a7 8c3c 1428 c9ba
00000010: bb17 533d dfe7 493d a85e 913d 979a b2b9
00000020: ca11 383d 28a5 773d 06f6 aa3c 3ac5 94bd
00000030: 6abc 1abd 9af1 a5bd 159e 0bbd 45b5 8c3d
00000040: f796 bf3c 0a72 41bd 87a6 8ebc 4418 83bd
00000050: d2c9 20bd 4e8c 1d3d 8459 9abd 0dcf 55bd
00000060: ec7a 0e3d 3943 773c 3080 bfbd 87ad a03d
00000070: 9996 343d c245 9abd a514 18bd 554f 2d3d
00000080: 1d06 b5bd b928 9d3d c564 cbbb 7bea 87bc
00000090: d509 a53b 833c 65bd 23b4 b83b 7a95 9c3d
000000a0: a5c5 7f3d bc34 5b3d 5935 44bc 15f4 aebd
000000b0: 6b60 183d 0bc7 9dbd 79c4 4a3d b987 a2bd
000000c0: a431 02bd 33b9 5b3d f618 2e3d 3a75 a23d
000000d0: 9a72 83bd 6cb0 123d f2a9 0cbd 48c6 debc
000000e0: af97 ab3c 1367 89bd c5dd 6c3d feee 88bd
000000f0: 0d0c 983d 0fc6 b0bc 704b 5ebd 8528 99bc
00000100: f0bc 73bd 5548 433d cb25 b9bd 5f08 b5bd
00000110: ad3f b23c a673 f53c b36d 87bd bcce 893c
00000120: 6c6b 403d 42d3 703d 86a1 bdbd 416e 0fbd
00000130: 4356 39bd 5916 4f3d 4d7b 36bd 1a04 ed3c
00000140: 5927 853d 7870 4abd 7cb2 8bbd b0c9 a7bc
00000150: 27d8 a83b 9b1c 063d 393d 783c 4824 d9bb
00000160: 13e9 70bd d522 96bc 607e 5ebd 11e6 4ebd
00000170: 9dd7 efbc 36a8 8a3d 3f72 a0bd a834 66bd
00000180: 3ac4 c33d 5481 bbbd bc20 15bd 0afd 10bd
00000190: 78bb a5bd 8734 3abc f93b ab3d e4f6 cd3a
000001a0: bf44 1fbc c32d d33c 63e0 fa3c 2235 32bb
000001b0: a179 aebc a57f 9ebd 4375 51bd a303 e83b
000001c0: 2e10 773d 7e40 12bd a37d 3e3c 2e9a 0e3d
000001d0: a83f 94bd 1050 87bd e253 47bd 2822 e8bc
000001e0: eb6f 973c 8fb7 673d 304f 6bbd d8a9 8a3c
000001f0: 102d 7cbd 6bd9 1dbc 6df1 733d 388d bbbd
00000200: 5556 663c 3ba3 8e3d 7706 523d 9758 77bd
00000210: 24b2 adbd 6445 773c 3068 8b3d d312 9cbb
00000220: 0f66 ed3c 7b24 f13d aca3 9d3d dbb9 0d3d
00000230: 64ce 183c 563f 1dbd 543a aebd 583c 8c3c
00000240: 21c1 53bd 7e54 703d 574c 7cbd 58c1 af3c
00000250: 1965 7c3d b401 8c3d c7bc b2bd 9c21 eebc
00000260: 4565 dbbd 4e42 1d3c c0af a43c c81a e13b
00000270: afce 5e3c 555a 7b3d 5c0d 1cbc c951 a93d
00000280: 2333 cfbb d240 953c d22d a73d 86aa 993d
00000290: d324 3b3c 87a5 c2bc 96e3 ba3d 33f3 893d
000002a0: 1b93 64bc b4fe 0c3d 63e4 9c3d 04b4 ba3d
000002b0: 93c9 bf3c 19fc 993d 6cd1 443c f137 5dbc
000002c0: 5eb6 4dbd 08a9 473d 6d01 c63d fdc1 283c
000002d0: 4226 8e3d 900f c63d 6a65 85bc 2e7b 603c
000002e0: 6acd 493d aac3 963d 561a 8bbd 6e9d c1bc
000002f0: 582c 1cbd 6557 20bd e80a 9dbd 5f86 d73d
00000300: 880b 303d 3b57 b7bd 6856 97bd 70de 053c
00000310: 553c fcbc 0148 00bd 37cb e3bd bd4e 30bd
00000320: 1a4f 1ebc 66c8 b43c af2b 8f3d 8d06 15bd
00000330: 6b65 a13d 8ece 5b3d 48a9 aa3d 359b 69bd
00000340: aafe 8b3d 2dbf b3bc 3bf9 75bd d0d4 023e
00000350: 3b3a 993d 275c 663d efc6 e9bc d555 c13d
00000360: 3aee 013d aff6 8abd 1cc8 13bb 37fd 483b
00000370: 6cf1 8cbc 5cd3 913b fafb 8d3d cdb1 c8bc
00000380: fb61 c2bd 66a8 9bbc f05c 59bd d8a7 0fbd
00000390: 7414 d6bc ac2b d63d 70de 153d 84c4 213b
000003a0: 47dd 8c3d 3623 60bd 8027 7d3d 904f 993d
000003b0: 7cc6 b2bd fc4b 263d 84ff 453d 8eb4 0d3d
000003c0: 0d2c 473d a3c7 eb3c 6a4d e43b 75b8 80bd
000003d0: 59b2 453c c1bb 9c3d 7526 c13c 9712 563c
000003e0: cd2f da3b e294 cc3d 6fe4 30bd 640f a63b
000003f0: 80b8 a43d 2d6f c33d fbb0 a83d 6afa bd3d

fc2.bias f4 [128]
0.008912736 0.0036397008 0.044957373 -0.06774309 0.029026913 0.067007 -0.04786912 -0.024941236
-0.009605605 -0.052175097 0.10227711 0.06938904 -0.028817043 -0.032436192 0.0335093 -0.034791384
-0.03817767 -0.074559264 -0.029626086 0.00032775584 0.075720936 0.0964973 -0.045451216 -0.09280741
0.0022931783 -0.06735811 0.04267954 -0.008133773 0.023937661 0.056561075 0.019522887 0.07311619
0.062111013 -0.016635442 0.07240319 -0.05395425 0.020201463 -0.009760001 0.053265605 0.06286131
0.020413091 0.0061478736 -0.08523864 -0.09107674 -0.057046007 0.0068891617 -0.0027979275 -0.006800714
0.0039525297 -0.05655846 0.007967265 0.06795649 0.01734896 -0.042604096 -0.013562979 -0.031995304
0.0774314 -0.018153787 -0.010775378 -0.08931144 0.0763195 -0.03724911 -0.03528788 -0.08593889
0.053149436 -0.07741241 0.0031875414 0.07011305 0.093838826 0.011023881 0.06169241 0.05193661
-0.039136745 0.027823707 -0.0010176738 0.02440132 -0.0046951887 0.001990708 0.05201998 0.039114907
-0.01172065 0.01846392 0.018569032 0.13782518 0.07553339 0.06650815 -0.017913334 -0.082705386
-0.0036964028 -0.023766479 0.09056956 -0.09672144 0.010922196 -0.08348622 0.024657538 0.05032256
0.004880775 -0.043796696 -0.053769473 0.030985583 0.046343375 0.04059919 0.00050238083 -0.009876234
-0.07930355 -0.0981814 -0.026027236 0.025249742 -0.062724516 -0.020939285 -0.004959907 0.088677965
-0.019605184 0.043723043 0.059683982 0.07695652 0.08905871 0.04866125 -0.032022443 -0.066229545
-0.06805355 -0.08792808 0.046165325 0.039176106 0.07598032 -0.075973 0.017672993 -0.0043203547
00000000: b906 123c 0c88 6e3b 3925 383d e4bc 8abd
00000010: d9c9 ed3c f73a 893d 6912 44bd 9051 ccbc
00000020: d460 1dbc 8eb5 55bd a976 d13d d71b 8e3d
00000030: b811 ecbc d0db 04bd 0c41 093d 6981 0ebd
00000040: 3060 1cbd 87b2 98bd 68b2 f2bc a5d6 ab39
00000050: 9413 9b3d 60a0 c53d 0e2b 3abd d011 bebd
00000060: 2649 163b 0cf3 89bd bed0 2e3d 8443 05bc
00000070: ea18 c43c 96ac 673d 76ee 9f3c f1bd 953d
00000080: 1e68 7e3d 0d47 88bc 2048 943d 22ff 5cbd
00000090: 8a7d a53c 69e8 1fbc 092d 5a3d 6ebd 803d
000000a0: 5b39 a73c 1a74 c93b 9991 aebd 7186 babd
000000b0: 13a9 69bd 7abe e13b 6f5d 37bb 86d8 debb
000000c0: 3984 813b d8a9 67bd 2289 023c c62c 8b3d
000000d0: 681f 8e3c a281 2ebd 4237 5ebc 820d 03bd
000000e0: 5b94 9e3d 40b7 94bc 368b 30bc ebe8 b6bd
000000f0: 664d 9c3d 8692 18bd 068a 10bd bb00 b0bd
00000100: 39b3 593d 668a 9ebd 12e6 503b 6e97 8f3d
00000110: 922e c03d 829d 343c 2eb1 7c3d 7cbb 543d
00000120: da4d 20bd 8bee e33c 7763 85ba 47e5 c73c
00000130: 19da 99bb 8a76 023b e712 553d f436 203d
00000140: f807 40bc a641 973c 151e 983c 0b22 0d3e
00000150: 40b1 9a3d 6d35 883d fcbe 92bc 7161 a9bd
00000160: 593f 72bb ebb1 c2bc 897c b93d e415 c6bd
00000170: 03f3 323c d3fa aabd 9bfe c93c 071f 4e3d
00000180: e9ee 9f3b 2a64 33bd 613d 5cbd 7ad5 fd3c
00000190: 8dd2 3d3d 564b 263d 35b2 033a eecf 21bc
000001a0: e669 a2bd 5413 c9bd 1237 d5bc 8cd8 ce3c
000001b0: b675 80bd dd88 abbc b786 a2bb cb9c b53d
000001c0: 0d9b a0bc ef16 333d 3177 743d 619b 9d3d
000001d0: 6a64 b63d 0551 473d f729 03bd 5ba3 87bd
000001e0: a95f 8bbd a313 b4bd da17 3d3d 2077 203d
000001f0: 929b 9b3d bb97 9bbd f4c6 903c c391 8dbb

fc3.weight f4 [641, 128]
0.026674174 -0.005553498 -0.014966186 0.009360061 -0.0040943115 -0.046222802 -0.008563001 0.050820198
0.021973932 0.07334159 0.0353919 0.021647833 0.072456755 -0.020748723 0.020218195 -0.018639712
0.05810524 0.029988121 -0.10836849 0.040923063 -0.036516637 -0.09549068 -0.031533703 0.05250678
-0.009808355 -0.06734274 -0.009102253 -0.05728819 -0.051417924 0.04063623 -0.070297845 -0.028205441
-0.070147075 0.041184977 -0.07402367 -0.008315434 -0.03030658 -0.070454665 0.09121997 -0.057645842
-0.08337679 -0.057846624 0.05007203 0.031568438 -0.072628595 -0.02028477 0.045318983 -0.027062198
-0.074595496 0.03407282 -0.015830997 -0.020723017 -0.08569785 -0.054257322 -0.051958956 -0.0338606
0.018278258 -0.008713666 -0.05246386 -0.015709264 -0.058985 0.03151414 0.051959094 0.01917559
0.069492266 -0.027952509 -0.07166362 0.009670451 0.009907114 -0.012279283 -0.03815453 0.053511817
0.02129881 -0.022986783 0.051725525 -0.080715194 0.0074435123 -0.01724656 0.066772096 0.022043921
-0.058288794 0.036574997 -0.084244736 -0.003454009 0.020824363 0.0060075154 0.07608746 0.030409371
0.004719471 -0.08670815 0.021771928 0.019927464 -0.05229452 0.0830129 -0.002689593 -0.09515475
0.042162832 -0.0028543726 -0.07980781 -0.017316038 0.05443825 -0.036996704 -0.048288435 0.058899194
0.016681567 0.004579183 -0.06310083 -0.0451214 -0.030253349 0.0122014955 -0.07983725 -0.09703251
0.07643438 -0.061034422 -0.067076966 -0.022434633 -0.11100895 -0.067970105 -0.060135316 -0.048140425
-0.07136571 -0.021159157 0.0029234851 0.028670862 0.015012356 -0.035240587 0.016259668 -0.059433974
0.0046073445 -0.016760668 0.041801997 0.049087398 -0.059160396 0.06350822 -0.011486311 -0.060832687
-0.05600519 -0.058150537 -0.052183714 0.029237896 -0.01166906 -0.00024639786 0.07819956 -0.057003926
-0.058304746 -0.07166214 0.013553413 -0.019931694 -0.059570253 -0.03528555 0.12200744 -0.017290108
-0.09966588 0.039716344 -0.012377109 0.09249112 -0.030390596 -0.009327594 0.011305824 0.009304769
0.053640764 0.004613919 0.005991243 -0.04404282 0.007272387 0.00932464 -0.12173547 0.019959103
0.03860729 0.01527737 -0.022410063 -0.007937894 0.043963708 -0.01945267 0.025355892 -0.05712178
-0.008761574 0.008791994 0.006441158 0.008009281 -0.017215628 0.019184403 -0.055755805 0.023313321
-0.06538101 -0.106453486 0.08243436 0.027882079 -0.07587354 0.019701168 -0.004103733 -0.035319056
-0.07853039 0.041569244 -0.05873215 0.05293268 -0.004942834 0.0017409351 0.040793024 0.045760233
-0.063003644 0.061474275 -0.05562818 0.012552507 -0.022611609 -0.049438097 -0.094458565 0.01782716
0.021970846 -0.020840105 0.0020770247 -0.04576313 -0.047329213 -0.057733655 -0.05973195 0.015259492
-0.043009844 -0.05427767 -0.09132199 0.00655485 -0.042148393 0.023168944 0.09157117 -0.08347651
0.046347022 -0.006473562 0.044215556 -0.07902219 0.084394135 0.0047630453 -0.0122363195 -0.05099453
0.024013145 -0.025886713 0.02747362 0.010583428 -0.008300275 0.07629431 -0.04132278 -0.064753585
0.03643773 0.112307295 0.009336915 -0.011456044 -0.010629881 -0.0035672893 -0.11573254 0.037032988
0.018948207 0.07815567 -0.0898252 -0.078732036 0.047438372 0.036422018 0.030954996 -0.073950045
00000000: cc83 da3c 1efa b5bb bc34 75bc f15a 193c
00000010: 9329 86bb 1f54 3dbd d44b 0cbc d728 503d
00000020: ad02 b43c 1e34 963d 19f7 103d cc56 b13c
00000030: 3564 943d 3af9 a9bc a1a0 a53c 4fb2 98bc
00000040: c3ff 6d3d a6a9 f53c 4df0 ddbd f19e 273d
00000050: 7892 15bd 9e90 c3bd 7c29 01bd 5911 573d
00000060: 39b3 20bc feea 89bd 9e21 15bc 05a7 6abd
00000070: 9a9b 52bd 2d72 263d 51f8 8fbd 190f e7bc
00000080: 45a9 8fbd 94b1 283d b999 97bd 753d 08bc
00000090: 8145 f8bc 894a 90bd 89d1 ba3d 0c1e 6cbd
000000a0: 73c1 aabd 95f0 6cbd 5418 4d3d e84d 013d
000000b0: 4dbe 94bd 3f2c a6bc 66a0 393d 8bb1 ddbc
000000c0: 86c5 98bd f18f 0b3d 02b0 81bc 51c3 a9bc
000000d0: 5b82 afbd ed3c 5ebd ead2 54bd 6ab1 0abd
000000e0: 49bc 953c c4c3 0ebc 58e4 56bd b7b0 80bc
000000f0: 419a 71bd f914 013d 0fd3 543d 2016 9d3c
00000100: f651 8e3d a9fc e4bc 60c4 92bd d070 1e3c
00000110: 7351 223c 0c2f 49bc ed47 1cbd 352f 5b3d
00000120: d87a ae3c c74e bcbc 25de 533d 024e a5bd
00000130: b5e8 f33b a848 8dbc cfbf 883d 7495 b43c
00000140: 3bc0 6ebd aacf 153d 8188 acbd a85c 62bb
00000150: db97 aa3c b1da c43b bed3 9b3d 131d f93c
00000160: cba5 9a3b 0b94 b1bd 0b5b b23c ec3e a33c
00000170: c732 56bd ab02 aa3d e243 30bb 7ee0 c2bd
00000180: efb2 2c3d 6d10 3bbb 4772 a3bd 5dda 8dbc
00000190: a4fa 5e3d db89 17bd 18ca 45bd 4840 713d
000001a0: c8a7 883c f90c 963b 023b 81bd 38d1 38bd
000001b0: dfd5 f7bc c8e8 473c b681 a3bd fbb8 c6bd
000001c0: a189 9c3d 3bff 79bd a65f 89bd d6c8 b7bc
000001d0: a958 e3bd e933 8bbd 7350 76bd e52e 45bd
000001e0: 2f28 92bd f855 adbc f197 3f3b 28df ea3c
000001f0: 63f6 753c 6f58 10bd ff32 853c 0a71 73bd
00000200: 35f9 963b ab4d 89bc 9238 2b3d de0f 493d
00000210: 2c52 72bd 9910 823d 1531 3cbc b22b 79bd
00000220: b365 65bd 422f 6ebd 97be 55bd 5084 ef3c
00000230: 962f 3fbc f62e 81b9 1727 a03d f37c 69bd
00000240: f5d0 6ebd 9ac3 92bd 220f 5e3c cb47 a3bc
00000250: f0ff 73bd 9587 10bd 09df f93d fca3 8dbc
00000260: a01d ccbd 9bad 223d 5cc9 4abc fc6b bd3d
00000270: b3f5 f8bc c4d2 18bc 103c 393c 0873 183c
00000280: 6bb6 5b3d 5c30 973b 3052 c43b 3e66 34bd
00000290: 344d ee3b 60c6 183c 7250 f9bd 4681 a33c
000002a0: ad22 1e3d ef4d 7a3c 4f95 b7bc f10d 02bc
000002b0: 4a13 343d 355b 9fbc 29b7 cf3c 87f8 69bd
000002c0: b48c 0fbc 4c0c 103c 5910 d33b 5c39 033c
000002d0: ca07 8dbc 9c28 9d3c 3360 64bd 94fb be3c
000002e0: 7be6 85bd 4904 dabd 59d3 a83d f568 e43c
000002f0: 9663 9bbd 5864 a13c 9c78 86bb b7aa 10bd
00000300: 8bd4 a0bd 8344 2a3d 1f91 70bd f0cf 583d
00000310: 7ff7 a1bb 1730 e43a 9616 273d 156f 3b3d
00000320: 0e08 81bd 73cc 7b3d 60da 63bd 08a9 4d3c
00000330: fb3b b9bc 9a7f 4abd 7e73 c1bd 440a 923c
00000340: 34fc b33c deb8 aabc b11e 083b 1f72 3bbd
00000350: 47dc 41bd 207a 6cbd 7da9 74bd f302 7a3c
00000360: 172b 30bd 4352 5ebd 0607 bbbd 11ca d63b
00000370: cba3 2cbd cccc bd3c aa89 bb3d bcf5 aabd
00000380: 60d6 3d3d 2d20 d4bb 5f1b 353d 63d6 a1bd
00000390: d5d6 ac3d 5213 9c3b d87a 48bc a4df 50bd
000003a0: 37b7 c43c 5f10 d4bc 5b10 e13c 1d66 2d3c
000003b0: e0fd 07bc 3140 9c3d 1342 29bd 879d 84bd
000003c0: bb3f 153d 5e01 e63d dcf9 183c 22b2 3bbc
000003d0: f428 2ebc 2fc9 69bb 2f05 edbd e7af 173d
000003e0: 4539 9b3c 1410 a03d 46f6 b7bd 433e a1bd
000003f0: bd4e 423d 412f 153d 5595 fd3c 1f73 97bd

fc3.bias f4 [641]
-0.10371128 -0.102686316 0.00047478278 0.06108098 -0.08397408 0.027527021 0.09362394 0.0025744117
0.06996518 -0.038235676 0.0751217 -0.08523222 0.011565414 0.06249184 0.035919823 -0.08464329
0.028299188 0.10991926 -0.031076388 -0.04619955 0.05897197 -0.074289516 0.061059363 -0.12683474
-0.056897346 0.017095467 -0.056237645 -0.021679178 0.006554869 -0.017441716 -0.022010569 -0.019757668
-0.07231818 -0.03140438 0.03887441 -0.030371752 0.0291131 -0.038810473 -0.065962166 -0.13161823
-0.043623794 0.111230716 0.09320625 0.04096806 -0.09218866 0.004553174 -0.027817637 0.06722132
-0.0076815863 0.055176646 -0.05073339 0.042846553 0.0040050517 -0.11437158 0.063802704 0.045542836
0.011456099 0.10869161 -0.053304974 0.04437897 -0.013688783 0.05353137 -0.04996073 0.05179405
0.025200635 -0.07674618 0.009024551 0.01245845 0.05999308 0.03660312 0.07371902 -0.0016453989
-0.025853131 -0.0797461 -0.08044972 -0.06308729 -0.019406578 -0.049216542 -0.012239027 0.0034833988
-0.016553218 -0.04833626 -0.0034950369 -0.113871254 -0.054155547 -0.0724531 0.060672548 -0.044712353
-0.088337034 -0.010106715 -0.06810883 0.08005452 -0.076843955 -0.046630945 0.016435878 -0.011116288
0.054053754 -0.010969881 0.021428851 0.05814802 -0.014891359 -0.013849404 -0.011374553 0.010308659
0.08127392 -0.013566015 0.06005926 0.05050024 0.12715296 0.06758296 -0.11548475 -0.036594268
0.05065593 -0.09901989 -0.030528065 -0.015568211 -0.086048365 -0.059941173 -0.0028032493 -0.00913676
0.03368374 0.048237126 -0.030139536 -0.07179242 0.00043762912 0.09453262 -0.1002703 -0.110702164
0.0019702648 0.006147824 0.015774246 -0.01877592 -0.11205542 -0.019296508 -0.073521934 -0.01831341
-0.074497014 0.003844252 -0.061765958 0.035374995 -0.018192237 -0.055217482 -0.066537626 0.017203936
-0.006651294 0.06878433 0.088656455 -0.019079892 -0.16130038 0.06274319 -0.018001761 -0.033364337
-0.05979442 0.0020721229 0.0863685 -0.015918283 0.04861286 0.022463262 -0.1012855 -0.00011168719
-0.10790913 -0.09425322 0.05440059 0.019886812 -0.028469285 -0.01020414 -0.067032166 0.018222399
-0.026682533 -0.048750985 0.043264262 0.018321292 -0.051994074 -0.035899915 0.0004678853 0.04046645
0.01123581 -0.02137874 0.072218105 0.012348074 -0.09469914 0.028657058 0.01946435 -0.0045544887
-0.027853383 0.025780402 0.03148416 -0.072161235 0.028668256 -0.09258736 0.0035984102 0.005120193
0.05305974 0.08724781 -0.08662383 -0.01498035 0.016287664 0.07763746 -0.08731105 0.055029288
-0.032149073 0.015267297 0.00836381 0.00871 -0.0673429 -0.06974398 0.06683786 -0.04814127
0.06408289 0.11438235 -0.015361117 0.04647405 0.0054502594 0.07078445 0.071006 0.0023228405
-0.07271205 -0.07234328 -0.08841537 -0.08793466 -0.048240498 0.011195878 -0.041867603 -0.042384032
0.010485013 0.012913239 -0.054827396 0.0017702123 -0.042731613 -0.039338443 0.013662219 -0.03789664
-0.008810143 -0.07119389 -0.06645915 -0.06382043 0.098547034 0.10602601 -0.035215646 -0.09101732
0.0046548652 0.057301536 0.0069614192 0.032249097 -0.008177631 -0.11504159 -0.04269175 -0.06888745
0.0072368747 0.024485132 0.06705873 -0.10255224 0.041086327 -0.025912134 0.10493207 -0.049187344
00000000: 9466 d4bd 344d d2bd 44ec f839 0d30 7a3d
00000010: 9afa abbd 5980 e13c e9bd bf3d 76b7 283b
00000020: e749 8f3d 039d 1cbd 68d9 993d 3b8e aebd
00000030: dd7c 3d3c 72f7 7f3d aa20 133d 7659 adbd
00000040: b3d3 e73c 591d e13d e993 febc bd3b 3dbd
00000050: 988c 713d 1a25 98bd 6219 7a3d f7e0 01be
00000060: 310d 69bd cb0b 8c3c 7259 66bd 8898 b1bc
00000070: 3aca d63b eee1 8ebc 824f b4bc d5da a1bc
00000080: 8e1b 94bd e1a1 00bd c63a 1f3d 2ece f8bc
00000090: 997e ee3c bbf7 1ebd 2c17 87bd eec6 06be
000000a0: ddae 32bd eecc e33d ebe2 be3d 20ce 273d
000000b0: 68cd bcbd cb32 953b d0e1 e3bc 55ab 893d
000000c0: d1b5 fbbb e800 623d d1cd 4fbd de7f 2f3d
000000d0: cf3c 833b a63b eabd feaa 823d 208b 3a3d
000000e0: 5db2 3b3c b599 de3d 5156 5abd b9c6 353d
000000f0: eb46 60bc b643 5b3d 9fa3 4cbd ff25 543d
00000100: 9071 ce3c 1a2d 9dbd b6db 133c 871e 4c3c
00000110: 4ebb 753d 27ed 153d fff9 963d 6daa d7ba
00000120: f2c9 d3bc ec51 a3bd d3c2 a4bd e933 81bd
00000130: 8bfa 9ebc 4997 49bd 3386 48bc bc49 643b
00000140: 9d9a 87bc 3efc 45bd fd0c 65bb 5535 e9bd
00000150: 35d2 5dbd 4a62 94bd c783 783d 4d24 37bd
00000160: 0cea b4bd a396 25bc a47c 8bbd a0f3 a33d
00000170: 5d60 9dbd 1700 3fbd 89a4 863c 1721 36bc
00000180: 7867 5d3d 04bb 33bc 8f8b af3c 9e2c 6e3d
00000190: e3fa 73bc 9ce8 62bc 555c 3abc a6e5 283c
000001a0: f172 a63d fe43 5ebc b300 763d 57d9 4e3d
000001b0: 6334 023e ef68 8a3d 4583 ecbd dfe3 15bd
000001c0: 987c 4f3d f1ca cabd fe15 fabc cf11 7fbc
000001d0: 203a b0bd e084 75bd b8b6 37bb 59b2 15bc
000001e0: f6f7 093d 4b94 453d 30e7 f6bc e807 93bd
000001f0: 9671 e539 519a c13d 845a cdbd d1b7 e2bd
00000200: 8f1f 013b b073 c93b fe38 813c f5cf 99bc
00000210: 507d e5bd b613 9ebc ab92 96bd 0106 96bc
00000220: e491 98bd d9ef 7b3b 4dfe 7cbd 5fe5 103d
00000230: e307 95bc ba2b 62bd e144 88bd 45ef 8c3c
00000240: 19f3 d9bb ccde 8c3d 8491 b53d 6f4d 9cbc
00000250: ed2b 25be 807f 803d 6e78 93bc 0ba9 08bd
00000260: feea 74bd 74cc 073b f8e1 b03d 0f67 82bc
00000270: 471e 473d e004 b83c c66e cfbd 9b39 eab8
00000280: 76ff dcbd d507 c1bd 27d3 5e3d abe9 a23c
00000290: 6b38 e9bc 442f 27bc 2948 89bd 2447 953c
000002a0: 5495 dabc 1daf 47bd de35 313d 8916 963c
000002b0: bdf7 54bd ca0b 13bd 804e f539 26c0 253d
000002c0: 6716 383c 7822 afbc 16e7 933d 934f 4a3c
000002d0: 9ff1 c1bd 35c2 ea3c b373 9f3c d23d 95bb
000002e0: c72c e4bc 6c31 d33c 89f5 003d 45c9 93bd
000002f0: b1d9 ea3c 719e bdbd 4ed3 6b3b 4bc7 a73b
00000300: 2c55 593d fbae b23d d667 b1bd 2470 75bc
00000310: b56d 853c 6300 9f3d 23d0 b2bd 6466 613d
00000320: bfae 03bd af23 7a3c 5d08 093c 63b4 0e3c
00000330: 13eb 89bd efd5 8ebd 4ae2 883d c82f 45bd
00000340: e43d 833d 4b41 ea3d 32ad 7bbc 935b 3e3d
00000350: 1798 b23b 70f7 903d 986b 913d cc3a 183b
00000360: 0eea 94bd b728 94bd 1e13 b5bd 1617 b4bd
00000370: d497 45bd ea6e 373c 5d7d 2bbd e19a 2dbd
00000380: 55c9 2b3c 0d92 533c b192 60bd 7806 e83a
00000390: 5807 2fbd 5921 21bd 80d7 5f3c 8239 1bbd
000003a0: 6b58 10bc 1ace 91bd bc1b 88bd 49b4 82bd
000003b0: 07d3 c93d 2a24 d93d 483e 10bd 4a67 babd
000003c0: d787 983b 04b5 6a3d 9e1c e43b a117 043d
000003d0: 78fb 05bc ed9a ebbd 8bdd 2ebd dd14 8dbd
000003e0: 4e23 ed3b 0b95 c83c 1656 893d e906 d2bd
000003f0: 234a 283d af45 d4bc a0e6 d63d ab78 49bd
