Assets/ONNX/2P_PPO_Builtin_V2.onnx (onnx, 449220 bytes, 6 tensors)

fc1.weight f4 [128, 100]
000000 ca 66 1b 3d 24 ed 8c ba a5 fd 52 3d 95 cf a3 3d
       0.037939824 -0.0010751826 0.051511426 0.079985775
000010 15 41 1f bd fe 4c 0e 3d 0a 68 20 bd 13 ca b3 bd
       -0.038880426 0.034741394 -0.03916172 -0.08778777
000020 48 10 84 bd 68 ac c8 bd 63 81 3e 3c f9 fe ec bd
       -0.06448418 -0.09798509 0.011627528 -0.1157207
000030 25 8f f9 bd 60 20 a4 3d b1 e8 c0 3c 36 9f cf 3c
       -0.12185506 0.080139875 0.023548456 0.025344472
000040 55 c7 33 3d 64 67 92 bd 1f cf 22 bd 76 8b fa bd
       0.04389127 -0.071486264 -0.039748307 -0.12233631
000050 f8 87 ee bb 1d ed 01 bd 6f a5 03 bc 4d a8 d3 bd
       -0.0072793923 -0.03172027 -0.008035048 -0.10334835
000060 a8 31 c6 bd de 58 1b 3d 46 2e db ba 3b 8c d4 bc
       -0.0967744 0.037926547 -0.0016722165 -0.025945773
000070 26 81 79 bd 85 2e 08 bd dc 9f b7 3d e5 0a b2 bd
       -0.06091418 -0.03324749 0.08966038 -0.08693484
000080 6d 8e 90 3d 75 6a bf 3d 6f 83 82 3d 4a 34 35 3d
       0.070584156 0.09346477 0.06372725 0.04423932
000090 92 3c d6 bd 6f 81 e8 bd 39 07 bd bd 6d 3a b3 3a
       -0.104607716 -0.113528125 -0.09229893 0.0013674028
0000a0 60 43 66 3d 6b d9 2d 3d 67 a7 ca 3b 32 99 55 3d
       0.056216598 0.042443674 0.0061845067 0.05214805
0000b0 50 99 a2 bd a1 73 51 bd 8d f2 15 be 61 2b 01 be
       -0.07939398 -0.051135663 -0.14643307 -0.12614204
0000c0 41 55 cd 3c ce 64 82 bc e1 24 19 3d 42 11 db bd
       0.025065066 -0.015917208 0.037388686 -0.10696651
0000d0 88 d7 44 3d 3c b8 9b 3d 38 93 bf bc 30 28 d3 bc
       0.04805711 0.07603499 -0.023385629 -0.025775999
0000e0 8c a1 d5 bd db 69 05 bd 83 11 dc 3d 6c a8 a3 bd
       -0.10431203 -0.032571655 0.107455276 -0.07991108
0000f0 e9 5b 1f ba 3a e0 bd bb cb 7a 64 3d 3c 78 a9 3d
       -0.00060790643 -0.005794552 0.055781167 0.08274886
000100 f5 43 9e 3d e5 af 87 bc 36 c8 5e 3d 53 15 86 bd
       0.077278055 -0.016563365 0.054390155 -0.06547036
000110 82 2a e8 3d 23 9b 66 bd 64 39 2d bd 27 20 c2 3c
       0.11336233 -0.056300294 -0.04229106 0.023696972
000120 89 26 5a 3d 62 a1 0e bd b1 8c 83 3d 14 9b 43 3d
       0.053259406 -0.034821875 0.06423319 0.047755316
000130 91 80 68 3b 50 5a 9d 3c 53 2e 05 be 86 b7 ea bd
       0.0035477022 0.019208103 -0.13005953 -0.114607856
000140 82 3a 29 3b bd 1e 89 bd 0f 22 b3 3c bf eb b1 bd
       0.0025822227 -0.06695316 0.021866826 -0.08687543
000150 56 8a a2 bd 2d 2b 3e bd ba 93 1b bd db e1 67 3d
       -0.07936542 -0.046427894 -0.03798268 0.056611877
000160 14 8f c1 bc 44 a3 bf bb 4f 11 1a 3c fc 4b 27 bd
       -0.023627795 -0.00584832 0.009403541 -0.04084395
000170 b8 c2 d0 bb b3 ae 26 bd b1 84 8a 3d 35 34 0d bd
       -0.0063708685 -0.04069395 0.0676359 -0.034473617
000180 5e 20 29 3c 4a c9 a6 bd 1e 04 3e bd 4a 19 92 bd
       0.010322658 -0.081438616 -0.046390645 -0.0713373
000190 d8 f6 70 bd 52 c7 14 bd d3 0e 59 bd 56 42 d7 3d
       -0.05882916 -0.0363229 -0.052992653 0.105106995
0001a0 04 bf 64 bc dd 65 99 3d fe 74 62 3d 6c 9c 52 bd
       -0.013961557 0.07490132 0.055287354 -0.051418707
0001b0 13 58 94 3b 22 6e 12 bd 3d 04 3d 3c c6 2d de bb
       0.004527101 -0.035749562 0.011536655 -0.006780359
0001c0 2d c4 ac 3d 0f df 49 bc 42 3e f5 bc 98 ec f9 3c
       0.08435855 -0.012321248 -0.029936913 0.030508325
0001d0 05 72 54 3d 61 84 db bd 2c 43 ae 3d 7f 88 d9 bc
       0.05186655 -0.10718609 0.08508906 -0.026554344
0001e0 dd 08 0c 3d 5f f1 38 bd 7b cf 85 bc 7b f3 2d 3c
       0.03418814 -0.045152064 -0.016334286 0.010617132
0001f0 71 d9 87 3d fb 84 bd 3d 2c 40 a2 3d 06 4a cc 3d
       0.066332705 0.0925388 0.07922396 0.09975056
000200 c1 92 a4 bd 6d 88 92 3d 5c ec dc bc 75 db 85 bc
       -0.080358036 0.071549274 -0.026968174 -0.016339997
000210 33 a6 27 3d a7 d7 b7 bc 6f 37 ac 3d bf 58 10 3d
       0.040929984 -0.022441698 0.084090106 0.035240885
000220 46 66 8f 3d 4f 24 ef 3d 43 b9 93 bd 14 b4 21 3d
       0.07001929 0.11676847 -0.0721307 0.039478377
000230 c6 47 ac 3d 69 b8 07 3e ed 69 f7 3c 1e 0b 52 3d
       0.08412127 0.1325394 0.030201877 0.051280133
000240 2b 46 cc 3d 3f 99 98 bd a7 be e7 bb 25 c8 36 3d
       0.09974321 -0.074511044 -0.007072288 0.044624466
000250 7c 1f 28 bd eb c0 3a bd 0c d1 a9 3d 43 f4 a2 bd
       -0.04104565 -0.045594137 0.08291826 -0.079567455
000260 44 5c 8c 3b 31 21 dd 3d 7f 7b 71 3c 32 c9 81 bb
       0.00428346 0.107973464 0.014738916 -0.003960752
000270 67 89 92 bb 3e 25 f8 3d cc 5f 1a 3d 8c a7 85 3d
       -0.004471946 0.121164784 0.037689015 0.06526098
000280 f5 d0 6c bd cd dc 22 bd 1b ae 95 bc 74 89 b6 3d
       -0.057816464 -0.039761353 -0.018271497 0.08912936
000290 fd 72 9c 3c 5c e0 8c bd b4 9b d2 3d d3 51 2b bd
       0.0190978 -0.06878731 0.10283604 -0.04182608
0002a0 fd 12 b4 3d 32 25 f3 3c a6 dc 9c 3c 8b 10 90 bc
       0.08792684 0.029680822 0.019148182 -0.017586013
0002b0 d6 f8 7b 3d 9b 5f c3 3c e5 e7 86 3d a5 23 00 bc
       0.061516605 0.0238493 0.06587199 -0.007820998
0002c0 4b 63 04 bd 98 99 13 3b d5 55 f2 3b 43 a1 68 bd
       -0.032321256 0.002252197 0.007395486 -0.056794416
0002d0 74 8a 2c bc ff 68 f4 3c a0 21 67 bd a6 cd d2 3d
       -0.010531057 0.029835222 -0.05642855 0.102931306
0002e0 c1 e7 36 bd df 95 40 bd 74 0d b0 3c e6 f0 52 3d
       -0.04465461 -0.04701793 0.02149079 0.05149927
0002f0 e2 54 a9 bd 8f 96 35 3d c6 a2 83 bd a1 5c 93 3d
       -0.08268143 0.044333037 -0.06427531 0.07195402
000300 e8 a0 67 bc 3f 4d 8e bd 05 2e ce 3d c4 6c 98 3d
       -0.014137484 -0.06948327 0.10067371 0.074426204
000310 80 3a a9 3d e6 23 29 bd f9 02 d9 bb e0 51 db 3c
       0.08263111 -0.041294 -0.006622669 0.02677244
000320 1e f4 58 3c 59 c9 6e bd 06 19 e9 bc f0 0b 32 bc
       0.013241796 -0.05829749 -0.028454315 -0.010867104
000330 15 ba e5 3d 62 38 06 3d 08 e6 a1 bd 25 82 7b 3d
       0.11217133 0.032768615 -0.07905203 0.061403412
000340 e6 b7 f2 bc bf 52 92 3d db 65 e2 bd 86 b8 8b 3d
       -0.029628705 0.07144689 -0.11054584 0.068223044
000350 0f 78 b1 bc 8b 78 8f bd 57 d5 57 bc b0 ba 8a 3d
       -0.021663694 -0.070054136 -0.013173423 0.06773889
000360 a2 94 85 bd 90 d1 91 bd 3a 5f ad 3d f3 31 9e bd
       -0.0652249 -0.07120049 0.08465429 -0.07724371
000370 10 fc 9f bd 87 51 ac 3d 69 1f bc bd 12 8f a8 bd
       -0.07811749 0.084139876 -0.091856785 -0.082304135
000380 e8 61 99 3d 5a b1 3f bd a7 5d 98 3d 7a 8c bd 3c
       0.07489377 -0.046799995 0.07439738 0.023138274
000390 6e 8a 1a 3c 7f 75 5b 3b 71 88 84 bd 1b 99 59 3d
       0.009432418 0.0033486781 -0.06471337 0.05312453
0003a0 da 1c f8 bb be 45 61 3d 51 52 05 bd a8 31 bf 3d
       -0.0075717987 0.054998152 -0.032549206 0.09335643
0003b0 dd 7e 39 3d 98 e1 cf bc 26 4c 81 bd 96 bc 84 bd
       0.045287002 -0.025376126 -0.06313352 -0.064812824
0003c0 6a fa 21 3c f5 e8 99 bd f5 7a 9d 3d 41 7f 48 bc
       0.0098863635 -0.07515136 0.07689468 -0.012237371
0003d0 d4 4a 64 3d b2 c3 18 bd 9d a8 bc 3d 16 90 cb bc
       0.055735424 -0.037296005 0.09211848 -0.024848979
0003e0 23 13 93 3d 93 0f 2d 3d 2f 5e b4 bd d6 ab bc bd
       0.071813844 0.04225118 -0.088070266 -0.092124626
0003f0 a1 c6 38 bd 58 bf 59 3d fc 84 cf bb af 36 35 bd
       -0.045111302 0.053160995 -0.0063329916 -0.044241603

fc1.bias f4 [128]
000000 aa eb 1f 3c be 6f bb 3c dc 41 8c 3d 6d dc ae 3d
       0.009760777 0.022880431 0.06848499 0.08538137
000010 a4 df e1 bd d4 92 26 bd c9 fc a0 3c fc ee c1 bc
       -0.11028984 -0.04066737 0.019651787 -0.023673527
000020 f2 d8 a4 bc 14 fc 5e 3d 00 6c 89 3c d7 8c 88 3d
       -0.020122979 0.05443962 0.016775131 0.06667488
000030 13 bb 02 3d 89 da ab bc c6 45 bc bd a4 76 e8 3d
       0.03191669 -0.02097823 -0.09192996 0.11350754
000040 8c ac ad 3d 28 73 17 3d c9 7f 41 bd bc 90 d1 3d
       0.08480176 0.036975056 -0.047241006 0.10232684
000050 3a da c2 3b e7 c0 c9 3b e0 bd 02 bd 9c 77 d6 bd
       0.005946425 0.006157029 -0.03191936 -0.104720324
000060 4e 47 d7 bc 09 dd ec bd 53 19 8c 3d 03 6a 92 bd
       -0.026279118 -0.115655966 0.06840768 -0.071491264
000070 bd 0e ff 3c f1 74 9a 3c 03 67 b7 3d 47 57 ba 3c
       0.031134957 0.01885459 0.08955195 0.022746695
000080 af b1 7e 3d a7 ab 87 3d 21 9d 85 bd 2e 6c 63 bd
       0.06218117 0.06624537 -0.065241106 -0.05552309
000090 97 2c 29 bd 2c 91 4f 3d 0e e3 a7 3d ff 19 00 bd
       -0.04130229 0.050675556 0.08197604 -0.03127479
0000a0 b9 ac 4d 3d 03 ff ab 3d c6 11 39 3d dc 7d b2 3d
       0.05021355 0.08398249 0.045182966 0.08715412
0000b0 da 67 8f 3d 0f 06 df bd 85 4f 34 bc d3 1f 04 3d
       0.0700223 -0.108898275 -0.011005287 0.032256912
0000c0 49 44 39 3d a7 e7 b2 3d c3 d8 9b bc b2 f4 5e 3d
       0.045231137 0.087355904 -0.019024258 0.05443258
0000d0 5d 33 ce 3d 3a a7 35 bd 39 93 b2 3d 8e f7 f0 3c
       0.100683905 -0.044348933 0.08719487 0.029414918
0000e0 d9 34 eb bd 70 9c e2 bd ea 11 60 bd be e3 b9 3d
       -0.11484689 -0.11064994 -0.054704584 0.090766415
0000f0 ee 2b ab bc 3b 25 bb bd 4e 99 35 3d 39 71 01 bd
       -0.02089497 -0.091379605 0.044335656 -0.03160212
000100 f1 e3 6d 3d 56 4c a3 3d 46 1b 02 3d 70 2a d1 bd
       0.05807871 0.07973544 0.03176429 -0.102131724
000110 da ec e0 3b e9 3d 3b 3d 94 72 bd bd 71 58 e5 bc
       0.0068641724 0.04571334 -0.0925037 -0.027996274
000120 00 57 55 bc 5b af f2 3d c6 68 7e bc 6d c7 8e bd
       -0.013021231 0.11849853 -0.01552791 -0.06971631
000130 18 46 0f bd b0 df 69 3d 6f 14 6a bc 2b 0f f2 bb
       -0.034978956 0.05709809 -0.014287098 -0.007387062
000140 ca 45 7d bd fd fc 49 3d ec ae d9 3c 8e a0 69 bd
       -0.061834134 0.049313534 0.026572667 -0.057037883
000150 58 18 7e bd 97 b3 9e 3d 21 89 87 3d 0e e7 87 bb
       -0.062034935 0.07749098 0.06617952 -0.004147417
000160 ad 66 6c bd 53 02 20 3d 0b 51 72 bd 1c 22 58 3d
       -0.057715107 0.039064717 -0.05915932 0.052766904
000170 c4 ab 9b bc 95 1d ca bc 70 9b fa 3c ee 06 cb 3d
       -0.019002803 -0.024672309 0.030591697 0.09913431
000180 92 af 5d 3d 78 cf d8 3c ab 8c 1a bd 2d 3a cc 3d
       0.054122515 0.026466116 -0.037731808 0.09972034
000190 89 6c fa 3d b5 79 15 bd ba 37 0e be 30 32 58 3d
       0.12227733 -0.036493022 -0.13888445 0.052782238
0001a0 4c 66 c0 3d f0 86 59 bc 9d 04 d7 3d ee c5 c2 3d
       0.093945116 -0.0132768005 0.10498927 0.09510408
0001b0 15 fc 4e bd c0 79 44 3d 7a 54 80 bb bb 55 b6 bc
       -0.050533373 0.047967672 -0.0039163204 -0.022257676
0001c0 18 af 30 bd 9d ce b0 3c 8a 67 0f bd 20 5e d3 bd
       -0.043135732 0.021582896 -0.035010852 -0.10320687
0001d0 7e 7c f7 bd a8 5c 50 bc 36 41 01 3d 41 4d cf 3c
       -0.12084292 -0.0127174035 0.03155633 0.025305392
0001e0 ac 2a 41 bd 93 8e b3 bb 6d 74 4e 3d cc c2 84 3c
       -0.047159836 -0.0054796427 0.050404 0.016206168
0001f0 9b 7f d8 3d fb 4f d1 3d bc db 37 3c 51 6f 66 bd
       0.10571214 0.10220333 0.011221822 -0.056258503

fc2.weight f4 [128, 128]
000000 2a 87 83 3b 88 64 3a 3d 22 a7 8c 3c 14 28 c9 ba
       0.0040139155 0.04550603 0.017169539 -0.0015347027
000010 bb 17 53 3d df e7 49 3d a8 5e 91 3d 97 9a b2 b9
       0.051536303 0.049293395 0.07098132 -0.00034065984
000020 ca 11 38 3d 28 a5 77 3d 06 f6 aa 3c 3a c5 94 bd
       0.04493884 0.06046024 0.020869266 -0.072641805
000030 6a bc 1a bd 9a f1 a5 bd 15 9e 0b bd 45 b5 8c 3d
       -0.037777342 -0.081027225 -0.034086306 0.06870512
000040 f7 96 bf 3c 0a 72 41 bd 87 a6 8e bc 44 18 83 bd
       0.023387415 -0.047227897 -0.01741339 -0.06401113
000050 d2 c9 20 bd 4e 8c 1d 3d 84 59 9a bd 0d cf 55 bd
       -0.03925497 0.038463883 -0.07536605 -0.052199412
000060 ec 7a 0e 3d 39 43 77 3c 30 80 bf bd 87 ad a0 3d
       0.034785196 0.015091711 -0.09350622 0.07845598
000070 99 96 34 3d c2 45 9a bd a5 14 18 bd 55 4f 2d 3d
       0.044088934 -0.075328365 -0.037129063 0.042311985
000080 1d 06 b5 bd b9 28 9d 3d c5 64 cb bb 7b ea 87 bc
       -0.08839057 0.07673783 -0.006207081 -0.016591301
000090 d5 09 a5 3b 83 3c 65 bd 23 b4 b8 3b 7a 95 9c 3d
       0.0050365725 -0.05596591 0.0056367083 0.07645698
0000a0 a5 c5 7f 3d bc 34 5b 3d 59 35 44 bc 15 f4 ae bd
       0.062444348 0.05351709 -0.01197561 -0.08542649
0000b0 6b 60 18 3d 0b c7 9d bd 79 c4 4a 3d b9 87 a2 bd
       0.037201326 -0.0770398 0.049503777 -0.07936043
0000c0 a4 31 02 bd 33 b9 5b 3d f6 18 2e 3d 3a 75 a2 3d
       -0.031785622 0.053643417 0.042504273 0.079325154
0000d0 9a 72 83 bd 6c b0 12 3d f2 a9 0c bd 48 c6 de bc
       -0.06418343 0.03581278 -0.03434176 -0.027194157
0000e0 af 97 ab 3c 13 67 89 bd c5 dd 6c 3d fe ee 88 bd
       0.020946352 -0.06709113 0.057828683 -0.06686209
0000f0 0d 0c 98 3d 0f c6 b0 bc 70 4b 5e bd 85 28 99 bc
       0.074241735 -0.021578817 -0.05427116 -0.018696079
000100 f0 bc 73 bd 55 48 43 3d cb 25 b9 bd 5f 08 b5 bd
       -0.059506357 0.047676403 -0.090404116 -0.08839487
000110 ad 3f b2 3c a6 73 f5 3c b3 6d 87 bd bc ce 89 3c
       0.021758879 0.029962372 -0.0661272 0.016822211
000120 6c 6b 40 3d 42 d3 70 3d 86 a1 bd bd 41 6e 0f bd
       0.046977445 0.05879522 -0.09259324 -0.035017256
000130 43 56 39 bd 59 16 4f 3d 4d 7b 36 bd 1a 04 ed 3c
       -0.04524828 0.05055842 -0.044551183 0.02893262
000140 59 27 85 3d 78 70 4a bd 7c b2 8b bd b0 c9 a7 bc
       0.065016456 -0.049423665 -0.068211526 -0.020481914
000150 27 d8 a8 3b 9b 1c 06 3d 39 3d 78 3c 48 24 d9 bb
       0.0051527205 0.032742124 0.015151315 -0.0066266395
000160 13 e9 70 bd d5 22 96 bc 60 7e 5e bd 11 e6 4e bd
       -0.058816027 -0.018327156 -0.05431974 -0.050512377
000170 9d d7 ef bc 36 a8 8a 3d 3f 72 a0 bd a8 34 66 bd
       -0.029277617 0.06770365 -0.07834291 -0.05620256
000180 3a c4 c3 3d 54 81 bb bd bc 20 15 bd 0a fd 10 bd
       0.095589116 -0.09155527 -0.03640817 -0.035397567
000190 78 bb a5 bd 87 34 3a bc f9 3b ab 3d e4 f6 cd 3a
       -0.080923975 -0.011365063 0.08361048 0.0015713838
0001a0 bf 44 1f bc c3 2d d3 3c 63 e0 fa 3c 22 35 32 bb
       -0.00972098 0.025778657 0.030624574 -0.0027192314
0001b0 a1 79 ae bc a5 7f 9e bd 43 75 51 bd a3 03 e8 3b
       -0.021298232 -0.0773919 -0.05113722 0.0070805117
0001c0 2e 10 77 3d 7e 40 12 bd a3 7d 3e 3c 2e 9a 0e 3d
       0.060318165 -0.035706036 0.011626634 0.034815006
0001d0 a8 3f 94 bd 10 50 87 bd e2 53 47 bd 28 22 e8 bc
       -0.07238704 -0.066070676 -0.04866398 -0.0283366
0001e0 eb 6f 97 3c 8f b7 67 3d 30 4f 6b bd d8 a9 8a 3c
       0.018485984 0.05657154 -0.057448566 0.016926691
0001f0 10 2d 7c bd 6b d9 1d bc 6d f1 73 3d 38 8d bb bd
       -0.061566412 -0.009634356 0.059556413 -0.09157795
000200 13 33 2a 3d 73 65 5c 3d 4b 4d 31 3d c2 97 91 bd
       0.041552614 0.053807687 0.043286603 -0.07109024
000210 56 a2 b1 bd 79 51 a0 3c 16 e9 91 3d 04 01 f0 bb
       -0.08673541 0.0195701 0.07124536 -0.00732434
000220 46 ab bb 3c 1c 29 ce 3d 2f 0e 8a 3d 42 9e e9 3b
       0.022908818 0.10066435 0.067409866 0.0071294615
000230 31 ad b1 bb 12 7b 83 bc d8 d6 81 bd 53 10 0a 3c
       -0.0054222574 -0.016049895 -0.06339806 0.008426744
000240 c5 1e a8 bd 95 b0 39 3d 7a 16 1f bd a7 10 1d 3c
       -0.08208994 0.045334417 -0.038839795 0.00958649
000250 c5 59 2b 3d 47 cf 83 3d ee 5d bb bd 38 02 43 bd
       0.041833658 0.064360194 -0.09148775 -0.047609538
000260 ce 7c bb bd c9 68 d7 3c 16 45 8d 3c a4 2a 9a bb
       -0.09154664 0.026295083 0.017244857 -0.00470479
000270 95 1d 8a 3c fb 81 65 3d c5 ef a9 bc 4d 47 99 3d
       0.016859809 0.056032162 -0.020744214 0.07484303
000280 7e b4 a7 bc 4e b6 23 3c f6 00 72 3d 86 aa 99 3d
       -0.020471808 0.009992195 0.059082948 0.07503228
000290 5f 69 24 3b 12 5d e9 bc 02 30 ab 3d a6 44 61 3d
       0.002508722 -0.028486762 0.08358766 0.05499711
0002a0 08 cd b3 bc 46 2d 84 bb f2 b4 8d 3d 39 14 b3 3d
       -0.021948352 -0.0040337173 0.06919278 0.087440915
0002b0 ae f9 4b 3c 91 47 83 3d 9b a3 07 3c 55 21 2a bd
       0.012449665 0.064101346 0.008278753 -0.041535694
0002c0 8f c9 83 bd 68 12 5a 3d 08 7d a8 3d 16 e4 5a 3b
       -0.064349286 0.05324021 0.08226973 0.003340011
0002d0 30 df 68 3d 8d 09 db 3d c9 95 1e bd d5 c4 4a 3c
       0.056853473 0.10695181 -0.038717065 0.01237603
0002e0 2a c7 61 3d 5d d4 96 3d 9e e5 4f bd 00 1d ca bc
       0.05512158 0.07364724 -0.05075609 -0.024672031
0002f0 83 34 60 bd 60 88 12 bd e7 5d be bd 57 48 d3 3d
       -0.05473758 -0.03577459 -0.09295254 0.10316532
000300 3a fe 2b 3d fe 6e 93 bd 83 1f ad bd 70 de 05 3c
       0.041990496 -0.071989045 -0.08453276 0.008170709
000310 5d c7 36 bd 5e 4f 3b bd bf da c6 bd 05 a4 45 bd
       -0.04462372 -0.045729987 -0.09709691 -0.048252124
000320 e4 64 b9 bc ca 11 00 3c 7f f4 79 3d 97 8e 0e bd
       -0.022631116 0.007816741 0.061024185 -0.034803953
000330 19 b9 6d 3d c4 68 78 3d 52 fb bc 3d 88 d2 83 bd
       0.05803785 0.060646787 0.09227623 -0.0643664
000340 b9 60 8e 3d 44 27 97 bc 6b f2 b1 bd 91 94 e2 3d
       0.06952042 -0.01845134 -0.08688816 0.11063493
000350 80 00 24 3d 07 79 6f 3d d9 38 f8 bc 39 68 9a 3d
       0.04003954 0.05846503 -0.030300545 0.0753941
000360 df c1 eb 3c 75 75 99 bd bc 66 32 bc 71 7a cd 39
       0.028778968 -0.07493106 -0.010888752 0.00039191873
000370 65 86 45 bb b5 78 c8 bc 2c aa a4 3d 2a ca 1b bd
       -0.003013992 -0.02447162 0.0804027 -0.038034596
000380 20 c0 99 bd 8a 17 28 bd 5c 4c 02 bd 6e eb 4f bd
       -0.07507348 -0.041038074 -0.031811103 -0.050761633
000390 f2 3d f2 bc 18 87 05 3e ed 40 05 3d b2 6a 03 bc
       -0.029570553 0.13039815 0.03253262 -0.008021044
0003a0 9b 7b 83 3d 8e 8f 4f bd ab 65 56 3d f4 fe 9c 3d
       0.0642006 -0.050674014 0.052343052 0.07665816
0003b0 58 96 5e bd f2 da 88 3d 67 a6 4d 3d b5 7d 12 3d
       -0.054342598 0.066823855 0.05020752 0.035764415
0003c0 fd 17 4b 3c 57 ee 94 3c ce e6 9e bb 5d 24 64 bd
       0.012395856 0.018180056 -0.0048492914 -0.05569874
0003d0 64 0d 82 3c 0a ee 94 3d 8f 7f c8 bb 73 bc 3b 3c
       0.015875526 0.07271965 -0.006118722 0.011458504
0003e0 55 bb 51 bb e2 6b a2 3d 8c 1a 84 bd c9 9b 22 bc
       -0.0032002528 0.07930733 -0.06450376 -0.009924837
0003f0 25 98 7e 3d 8b 00 b7 3d e3 bf 5c 3d b3 74 c3 3d
       0.062156815 0.089356504 0.053893935 0.09543743

fc2.bias f4 [128]
000000 b9 06 12 3c f6 7a 1b 3a 83 8b 27 3d e4 bc 8a bd
       0.008912736 0.00059311034 0.040904533 -0.06774309
000010 c4 7c c8 3c 2a 81 98 3d 6a d9 47 bd 6f 8f ef bc
       0.024473555 0.07446511 -0.048791327 -0.0292432
000020 b7 8a 51 bc 20 4c 62 bd c9 b2 a5 3d 7e c0 87 3d
       -0.01278942 -0.05524838 0.08090741 0.06628512
000030 b8 11 ec bc ff 69 0e bd 9e be cb 3c 7e 97 40 3b
       -0.028817043 -0.034769055 0.024871167 0.0029387171
000040 30 60 1c bd c7 1c a8 bd f5 67 ae bc 91 00 1c bb
       -0.03817767 -0.08208614 -0.021289805 -0.0023804049
000050 94 13 9b 3d 2c 0d a3 3d 0e 2b 3a bd e6 84 d3 bd
       0.075720936 0.07961497 -0.045451216 -0.10328083
000060 1b 35 22 3d 0c f3 89 bd 3e 09 ca 3c 34 89 48 bc
       0.039601427 -0.06735811 0.02466261 -0.012239743
000070 72 8f be 3c 96 ac 67 3d 52 28 9e 3c df b9 fc 3d
       0.02326176 0.056561075 0.019306336 0.123401396
000080 7f 24 d3 3d d8 e0 0b bc 37 3d 79 3d 59 14 72 bd
       0.103096955 -0.008537494 0.060849395 -0.059101436
000090 c3 82 d0 3c 69 e8 1f bc 91 cf 55 3d d9 44 5a 3d
       0.025452977 -0.009760001 0.052199904 0.053288314
0000a0 16 d0 52 3d d4 9d c2 bc a8 44 be bd 71 86 ba bd
       0.051467977 -0.023756899 -0.09290439 -0.09107674
0000b0 13 a9 69 bd 30 bc 19 3d 89 76 4d bc d7 e6 a3 bc
       -0.057046007 0.037532985 -0.012540468 -0.020007534
0000c0 e1 cd c0 3a 2d bc 05 bc 3d 7d 9d 3c e6 f8 75 3d
       0.0014709794 -0.00816254 0.019224757 0.06005182
0000d0 79 35 f5 3b 6f 08 48 bd f7 89 98 3b b5 16 1f bd
       0.007483181 -0.048836168 0.0046551186 -0.038840014
0000e0 b0 a1 9e 3d 7a 27 e8 bc d7 20 58 bc eb e8 b6 bd
       0.07745683 -0.028339136 -0.013191423 -0.08931144
0000f0 e7 bd bf 3d f1 55 d6 bc 2c e0 2b bd bb 00 b0 bd
       0.09362393 -0.026164027 -0.041961834 -0.08593889
000100 39 b3 59 3d 73 6a a4 bd ab 0e e2 bc 60 d2 8f 3d
       0.053149436 -0.08028116 -0.027594885 0.07022548
000110 f0 07 cb 3d 5d 6b cb 3c da f5 69 3d 00 bb 6e 3d
       0.09913623 0.024831468 0.057119228 0.058283806
000120 da 4d 20 bd 4b 25 bf 3c 9c c8 30 bc b2 d8 93 3c
       -0.039136745 0.023333212 -0.0107900165 0.018047664
000130 59 02 c5 bb 4f f7 1a 3d c5 46 93 3d 7a 7c d3 3c
       -0.0060122428 0.037833508 0.071912326 0.025816191
000140 d5 db 87 bc d3 01 65 3c d8 d9 cf ba 48 22 f9 3d
       -0.016584316 0.013977486 -0.0015857769 0.12164742
000150 c5 e7 b1 3d 40 ea 70 3d fc be 92 bc 71 61 a9 bd
       0.08686785 0.05881715 -0.017913334 -0.082705386
000160 7f a2 2b bc 02 65 fa bb 26 15 c7 3d e4 15 c6 bd
       -0.010475754 -0.0076414356 0.097208306 -0.09672144
000170 03 f3 32 3c 93 62 a9 bd 90 3b aa 3c 49 f7 22 3d
       0.010922196 -0.08270755 0.020780355 0.03978661
000180 53 88 d7 3b 2a 64 33 bd 6a d7 70 bd 5a 28 05 3d
       0.0065775304 -0.043796696 -0.058799185 0.032509185
000190 70 ef 4c 3d 56 4b 26 3d 03 27 cf ba bf 4c 5d 3c
       0.050033033 0.04059919 -0.0015804473 0.013507067
0001a0 e6 69 a2 bd 54 13 c9 bd be ed d8 bc 11 20 aa 3c
       -0.07930355 -0.0981814 -0.026480552 0.020767244
0001b0 b6 75 80 bd dd 88 ab bc 1d f0 b0 bb 74 b6 90 3d
       -0.062724516 -0.020939285 -0.0053997175 0.0706605
0001c0 0d 9b a0 bc c6 25 9a 3d 1c bf 1c 3d 32 1f 97 3d
       -0.019605184 0.07526736 0.038268194 0.07378997
0001d0 73 a5 a7 3d 84 55 4a 3d 71 fc 3a bd e0 b2 90 bd
       0.08185854 0.04939796 -0.045650903 -0.07065368
0001e0 a8 e6 8e bd 6f f5 bc bd fc 6e 76 3d b2 5b 06 3d
       -0.06977588 -0.092265 0.060164437 0.03280229
0001f0 30 df a2 3d 2d 19 a2 bd 34 1d ce 3b 9b c4 06 3c
       0.07952726 -0.07914958 0.0062901024 0.008225585

fc3.weight f4 [641, 128]
000000 cc 83 da 3c 52 85 aa bb 5e 31 99 bc f1 5a 19 3c
       0.026674174 -0.0052038813 -0.018700298 0.009360061
000010 d2 4d 0d bc 28 fd 49 bd 57 3a 37 bb c1 a9 8b 3d
       -0.008624511 -0.049313694 -0.0027958357 0.06819487
000020 c2 00 d3 3c 1c eb 8f 3d cd b9 27 3d 5b 01 98 3c
       0.025757197 0.070272654 0.040948678 0.018555334
000030 35 64 94 3d c5 f5 c3 bc 7d f7 92 3c 73 d8 97 bc
       0.072456755 -0.023920903 0.017940277 -0.018535828
000040 c3 ff 6d 3d 13 59 99 3c 9b 83 ee bd b7 6c 91 3c
       0.05810524 0.018719232 -0.116461955 0.017752035
000050 78 92 15 bd 7e 6f a2 bd 7c 29 01 bd 0e a2 3e 3d
       -0.036516637 -0.07931422 -0.031533703 0.046541266
000060 5c fe 5e bc fe ea 89 bd c8 dc 73 3c 4a 2b 4c bd
       -0.013610449 -0.06734274 0.014884181 -0.04984597
000070 36 94 4d bd 2d 72 26 3d 30 31 7c bd ca 5b ef bc
       -0.050190173 0.04063623 -0.061570346 -0.029218573
000080 c8 e5 8e bd 03 9c 3b 3d ce de 88 bd 0c 7f 36 3a
       -0.06977421 0.04580308 -0.066831216 0.00069616805
000090 f5 75 00 bd 89 4a 90 bd 59 cc b5 3d 25 60 98 bd
       -0.031362493 -0.070454665 0.08876867 -0.07440213
0000a0 13 3b ae bd 4d 2f 37 bd 74 51 87 3d e8 4d 01 3d
       -0.08507361 -0.044722844 0.06607333 0.031568438
0000b0 4d be 94 bd 7c 77 03 bd 23 4b 5a 3d 1c 5b 91 bc
       -0.072628595 -0.03209637 0.053294312 -0.01774364
0000c0 5c 6a 6c bd 2d c4 18 3d f9 85 87 bc 63 40 ca bc
       -0.05771862 0.037296463 -0.016543375 -0.024688905
0000d0 e9 82 a7 bd fc 20 46 bd 76 6c 3f bd 1c b3 21 bd
       -0.08179266 -0.0483713 -0.046734296 -0.039477453
0000e0 2c a9 ae 3b cd ef 11 bc 41 8c 54 bd b7 b0 80 bc
       0.0053302255 -0.008907271 -0.05189157 -0.015709264
0000f0 2c ed 7e bd 2b 0d ea 3c 8c d9 72 3d 20 16 9d 3c
       -0.062237903 0.028570732 0.0592895 0.01917559
000100 f6 51 8e 3d 36 a9 cd bc 0e 06 c7 bd 06 bf 3d 3a
       0.069492266 -0.0251051 -0.09717952 0.00072382425
000110 85 e4 10 3c 67 7f 52 bc 0f 76 2e bd 6d dd f4 3c
       0.008843546 -0.012847758 -0.04259306 0.02989074
000120 d8 7a ae 3c 8b 3e e1 bc 69 41 3a 3d 91 0e 90 bd
       0.02129881 -0.027495643 0.045472536 -0.07034028
000130 27 74 50 3c 2f dc 86 bc 5e ba 40 3d e2 ad 10 3d
       0.012723005 -0.016462414 0.047052734 0.035322078
000140 6d 67 51 bd 02 de 0b 3d 02 66 b0 bd 0a 1a b9 bb
       -0.051124025 0.03414727 -0.086132064 -0.005648856
000150 79 79 95 3c 00 2e 76 39 be d3 9b 3d 13 1d f9 3c
       0.0182464 0.00023477525 0.07608746 0.030409371
000160 28 39 a6 3b ef 69 ca bd 50 b2 b7 3c ec 3e a3 3c
       0.0050727315 -0.098834865 0.022423893 0.019927464
000170 c7 32 56 bd c3 ae 93 3d 51 f2 85 3c d8 b7 e9 bd
       -0.05229452 0.072110675 0.016350897 -0.114120185
000180 4d 2b 2d 3d 6d 10 3b bb e5 e7 a7 bd 22 df 8f bc
       0.042277623 -0.0028543726 -0.08198527 -0.017562453
000190 52 f5 4f 3d db 89 17 bd e8 3e 57 bd cc 93 a3 3d
       0.050771065 -0.036996704 -0.052550226 0.079871744
0001a0 c8 a7 88 3c f9 0c 96 3b 60 59 5b bd c9 f7 4a bd
       0.016681567 0.004579183 -0.05355203 -0.049552713
0001b0 df d5 f7 bc c8 e8 47 3c be f8 a2 bd 0f 54 b3 bd
       -0.030253349 0.0122014955 -0.079576 -0.08756267
0001c0 a1 89 9c 3d e6 1e 6b bd 56 a5 91 bd ae 7b d1 bc
       0.07643438 -0.057402514 -0.071116135 -0.02557167
0001d0 89 0e bb bd 5e b0 90 bd 3c e6 83 bd 99 85 1a bd
       -0.09133632 -0.07064889 -0.06440398 -0.037725065
0001e0 65 d1 8e bd 1a e9 1a bc fb 55 63 3b b9 e8 b4 3c
       -0.069735326 -0.00945499 0.00346887 0.022083627
0001f0 48 ee 83 3c 52 56 03 bd 78 8b 9f 3c 51 32 7a bd
       0.016104832 -0.032064743 0.019475684 -0.06108314
000200 35 f9 96 3b 4e 57 81 bc 2e e5 1b 3d de 0f 49 3d
       0.0046073445 -0.0157887 0.03806036 0.049087398
000210 ef c3 60 bd f0 85 91 3d 81 03 3d bb 18 a1 b4 bd
       -0.054874357 0.07105625 -0.00288412 -0.08819789
000220 4d 55 15 bd 94 b9 7a bd 8b 39 42 bd 88 3b d6 3c
       -0.036458302 -0.061212137 -0.04741816 0.026151434
000230 96 2f 3f bc 16 ef 94 3b 87 82 9c 3d 56 e9 53 bd
       -0.01166906 0.004545103 0.076420836 -0.0517362
000240 f5 d0 6e bd 31 83 8e bd f7 f2 13 3b 14 9a 94 bc
       -0.058304746 -0.069586165 0.0022575238 -0.018139876
000250 f0 ff 73 bd 67 d6 ee bc 09 df f9 3d 9f 92 48 bc
       -0.059570253 -0.02915497 0.12200744 -0.012241988
000260 8d d3 b9 bd 9b ad 22 3d 04 a8 9c bb 0d 6c bc 3d
       -0.09073553 0.039716344 -0.004780771 0.092002966
000270 84 08 cc bc c4 d2 18 bc 28 ba a3 3b 20 22 44 3c
       -0.024906404 -0.009327594 0.004996557 0.011971027
000280 7a 3b 43 3d e7 56 ad 3c 00 13 91 3c 8a 99 64 bd
       0.047664143 0.021159602 0.017709255 -0.05581049
000290 93 09 29 3c 60 c6 18 3c d1 73 f7 bd 29 ca 21 3c
       0.010317224 0.00932464 -0.12082637 0.009874859
0002a0 bc 30 45 3d f6 57 96 3c 44 cf e2 bc f1 0d 02 bc
       0.04814218 0.01835249 -0.027686723 -0.007937894
0002b0 4a 13 34 3d 51 08 18 bc 91 73 f2 3c 65 eb 06 bd
       0.043963708 -0.009279327 0.029596122 -0.032939333
0002c0 e3 28 60 3b 85 b8 54 3c 6b 4d 55 3c 5d ef b6 bb
       0.0034204058 0.012983446 0.013018946 -0.0055827335
0002d0 84 22 d0 bb 2f 42 a9 3c 60 50 2e bd e6 69 bb 3c
       -0.006351771 0.020661442 -0.04255712 0.022877645
0002e0 18 8d 81 bd be 4f ce bd 55 f0 80 3d f5 68 e4 3c
       -0.063257396 -0.10073803 0.0629584 0.027882079
0002f0 61 c3 88 bd 95 55 dc 3c c7 f4 20 bc b7 aa 10 bd
       -0.066778906 0.026896277 -0.0098239845 -0.035319056
000300 8b d4 a0 bd b6 ab 1e 3d b2 50 71 bd 5f 8f 63 3d
       -0.07853039 0.038737975 -0.058914848 0.05555665
000310 fb 5c ea 3a 36 03 3c ba 1c 45 39 3d 3b af 9a 3d
       0.0017880494 -0.00071721093 0.045231923 0.07552954
000320 0e 08 81 bd 5d 54 69 3d b6 26 4e bd 5c 14 a4 3c
       -0.063003644 0.05696522 -0.050329886 0.02002924
000330 d8 81 61 bc 47 9b 36 bd d7 3f ad bd b4 66 52 3c
       -0.013763867 -0.044581678 -0.08459442 0.012841869
000340 11 e0 de 3c c3 1b 59 bc 0a 30 a5 3b 1d f8 18 bd
       0.027206453 -0.013251248 0.005041127 -0.037345994
000350 44 d4 02 bd 03 81 6f bd 7d a9 74 bd f3 02 7a 3c
       -0.031940714 -0.058472645 -0.05973195 0.015259492
000360 1b cc d6 bc 01 6c 33 bd 1f 30 cc bd 11 ca d6 3b
       -0.026220372 -0.043804172 -0.09970116 0.00655485
000370 cb a3 2c bd ee 06 c4 3c 05 fa b8 3d 9c 87 e3 bd
       -0.042148393 0.023929086 0.090320624 -0.1110985
000380 d9 94 57 3d 2d 20 d4 bb a7 6b 66 3d b3 f3 99 bd
       0.052632187 -0.006473562 0.05625501 -0.07517185
000390 d3 3a ba 3d 52 13 9c 3b 29 0d 86 bc 9c 04 5f bd
       0.09093251 0.0047630453 -0.016363697 -0.054447755
0003a0 37 b7 c4 3c 5f 10 d4 bc c4 d0 0b 3b 98 2e ca 3b
       0.024013145 -0.025886713 0.002133415 0.006170105
0003b0 e0 fd 07 bc 31 40 9c 3d 59 76 07 bd 82 bb 62 bd
       -0.008300275 0.07629431 -0.03307185 -0.055354603
0003c0 bb 3f 15 3d 30 94 ed 3d e1 24 2f 3d 9e c0 6e bc
       0.03643773 0.1160053 0.04275978 -0.014572291
0003d0 51 b5 8f 3b bf 85 28 3b 52 3a d0 bd 65 08 51 3d
       0.0043856283 0.0025714485 -0.10167374 0.051033396
0003e0 51 35 8d 3c 80 2a b9 3d 77 95 b4 bd c5 65 8f bd
       0.017237337 0.09041309 -0.08817571 -0.07001833
0003f0 60 7f 57 3d f0 2c 08 3d 44 f7 97 3c 27 fe 8b bd
       0.05261171 0.03324598 0.018550523 -0.06835585

fc3.bias f4 [641]
000000 80 be e5 bd 98 42 ca bd af ec 40 3d 0b ce 1f 3d
       -0.112179756 -0.09875983 0.04710072 0.039014857
000010 23 ab a4 bd 1f fe b2 bb 9b 38 9a 3d 04 41 f5 3c
       -0.08040454 -0.0054624225 0.07530328 0.029938228
000020 41 95 16 3d 25 73 08 bd 10 ff 93 3d ce a0 d6 bd
       0.036763433 -0.033312935 0.07226384 -0.1047989
000030 f4 37 8f bc bd 0e ab 3d dd 2c 2f 3c ec 11 9b bd
       -0.017482735 0.083524205 0.010691849 -0.07571778
000040 df 4e 38 b9 c4 40 f7 3d 4b 76 0e bb bd bf 93 bc
       -0.00017576989 0.120729 -0.0021737989 -0.018035764
000050 8c c8 01 3d 40 8b 95 bd 81 6c 85 3d d3 84 f3 bd
       0.031685397 -0.073019505 0.06514836 -0.118905686
000060 ee bc 80 bd d5 d2 9d 3c 3f 18 99 bd 03 65 5c 3c
       -0.062860355 0.019265572 -0.07475328 0.013451817
000070 c9 6c 64 bb 18 4e 05 bc 68 d5 6c bd b4 6a 4a bc
       -0.003485488 -0.008136295 -0.057820708 -0.012354542
000080 65 48 b8 bd 03 ab 25 bd 37 b1 12 3d 71 11 3d bd
       -0.08998183 -0.040446293 0.035813536 -0.04615921
000090 35 fd f7 bb 6a da b2 bc 04 d1 87 bd 73 94 bc bd
       -0.0075680264 -0.021832664 -0.066316634 -0.09208002
0000a0 38 f7 47 bd 07 9e e9 3d 9d f4 ca 3d 4d 6b d6 3c
       -0.04881975 0.114070944 0.099099375 0.026174212
0000b0 ff 27 8d bd 94 71 7b 3b 7c 59 8b bc 3a a7 9a 3d
       -0.06892394 0.0038367258 -0.017010443 0.07551427
0000c0 d9 e3 3d bb bc a2 09 3c da 93 3e bd f1 e9 20 3d
       -0.002897492 0.008400615 -0.04652772 0.039285604
0000d0 d7 8f e7 3c 09 60 06 be 7b 2f ab 3d dc b8 00 3d
       0.02826683 -0.13122572 0.083586656 0.031426296
0000e0 0d 1d 64 3c b8 46 e5 3d 67 d3 4c bd e1 4c a1 3c
       0.013922942 0.11195129 -0.050006296 0.019689979
0000f0 c0 c9 b1 3c 52 9d c7 3c ee f6 8b bd cd 94 e7 3c
       0.021702647 0.024367008 -0.068342075 0.028269196
000100 77 cd 54 3d a5 62 9d bd 76 9a 5b 3c 2e 49 a2 3b
       0.05195376 -0.076848306 0.013403526 0.0049525714
000110 ec 85 a3 3d fe 0a 54 3d 79 ee 9e 3d e8 c0 f5 3c
       0.07984528 0.051768295 0.07760329 0.029999211
000120 0d 2f 9c 3a bc 0a 5a bd 0d 07 86 bd 3c b0 16 bd
       0.0011915878 -0.053232893 -0.065443136 -0.036789164
000130 af e9 5c bc 93 cd 42 bd 53 93 5c bc d9 91 f4 bb
       -0.013483449 -0.047559332 -0.013462859 -0.0074636755
000140 c7 e6 c1 3a 60 6c 39 bd 7e d7 98 3c b7 5a c7 bd
       0.0014793508 -0.04526937 0.018657442 -0.09734099
000150 93 ca 47 bd b1 98 5f bd e6 45 89 3d dd 8d 25 bd
       -0.048777174 -0.054588977 0.06702785 -0.040418494
000160 84 d6 c3 bd 39 3e 3e bc 19 e0 a5 bd 9a 92 b0 3d
       -0.095624 -0.011611515 -0.08099384 0.08621712
000170 67 61 8e bd e3 7e 01 bd 4b 67 60 3c ce 22 9b bc
       -0.06952172 -0.03161515 0.013696502 -0.018937495
000180 c2 8f 86 3d 01 f1 88 bc c5 c6 9a 3c 97 ad 26 3d
       0.065703884 -0.016716482 0.018893609 0.040692892
000190 ae 2b 1d bc 26 49 5a bd c5 dd 66 bc dd 6a 64 3c
       -0.009592934 -0.053292416 -0.01409096 0.013941494
0001a0 4a 96 78 3d 5d 57 d9 bc ae 46 1e 3d 18 2d 99 3c
       0.0606902 -0.026530916 0.038641624 0.01869826
0001b0 b2 30 14 3e 57 35 d3 3d 5d e1 14 be 9c 00 36 bd
       0.14471701 0.10312908 -0.14539094 -0.044434175
0001c0 8d 92 1b 3d d6 a6 fb bd 9d d6 b3 bd f6 33 67 bc
       0.03798156 -0.12287681 -0.087811686 -0.01411151
0001d0 31 df 93 bd c5 90 11 bd 64 35 05 bc 6e b3 94 bc
       -0.07220305 -0.035538454 -0.008130405 -0.018151965
0001e0 7f a3 f0 3c 3c fc 9e 3d a1 1c 5a bd a1 f8 8d bd
       0.029374836 0.07762954 -0.05324996 -0.06932188
0001f0 8a 76 36 bc 17 ae 98 3d 3a 93 23 be f7 eb 11 be
       -0.01113666 0.0745508 -0.15974131 -0.1425017
000200 19 c2 81 bd 29 27 28 3b 56 3f ee 39 86 cd 86 bd
       -0.06335849 0.0025658107 0.00045442086 -0.06582169
000210 76 22 c9 bd a9 d4 d3 bc 36 70 26 bd cc 60 21 bd
       -0.09821026 -0.02585824 -0.040634356 -0.039398953
000220 3c c8 dc bd 76 0f df bb 9e 47 96 bb 15 c3 5d 3d
       -0.10780379 -0.006807263 -0.004586174 0.054141123
000230 e3 2a da bc b6 5c 3b bd b1 63 84 bd c9 4f ef 3c
       -0.026631778 -0.045742713 -0.06464327 0.02921285
000240 10 de 99 bc b5 92 b8 3d c5 38 ae 3d d6 7e 92 bc
       -0.018782645 0.09012357 0.08506922 -0.017882746
000250 83 ae 21 be 22 1b 9b 3d d0 92 c4 bb da ea 30 bd
       -0.15789227 0.075735345 -0.0059989467 -0.043192722
000260 06 82 45 bd 78 a5 f5 3b a0 6e a4 3d ed 4b 41 bc
       -0.048219703 0.007496532 0.080289125 -0.011797887
000270 bd f4 34 3d 0f de 02 3c 2c b1 e2 bd 53 1a e1 bc
       0.044178713 0.007987513 -0.11068949 -0.027478373
000280 e1 9d fe bd 20 07 dc bd 18 a7 1d 3d 22 23 27 3d
       -0.12432457 -0.107435465 0.03848943 0.04080499
000290 2f ba 09 bd b5 a0 27 bc a3 ed e1 bd 23 be 9e 3c
       -0.033624824 -0.010231187 -0.11031654 0.019377774
0002a0 88 e2 25 bd 83 1c a4 bd 32 11 0a 3c 6d 61 60 3d
       -0.04049924 -0.08013251 0.008426951 0.054780412
0002b0 82 18 5a bd 60 f1 c7 bc 5f ac 89 3c e6 17 13 3d
       -0.05324603 -0.024407089 0.016805826 0.035911463
0002c0 a1 cb c9 3c 6b 92 59 bc 98 2c c2 3d bc 3b f1 3c
       0.02463323 -0.013279538 0.09481162 0.029447429
0002d0 64 5d 92 bd 75 93 a4 3c 80 9b a9 bb 53 a4 67 bc
       -0.07146719 0.020089844 -0.0051760077 -0.014138299
0002e0 b0 ba 5e bc d9 5c 54 ba 4b 7b 0c 3d 58 50 c5 bd
       -0.013594314 -0.00081009936 0.03429727 -0.09634465
0002f0 f6 1d 95 bc 46 74 a5 bd f4 14 9c 3b ae eb 4b 3c
       -0.018202763 -0.08078818 0.00476324 0.012446327
000300 76 49 3e 3d cf b8 bd 3d 6b e2 08 bd d1 ce 09 bd
       0.046456777 0.09263765 -0.033419054 -0.0336445
000310 36 58 bf 3c 10 15 bd 3d 47 c4 53 bd b6 3f 13 3d
       0.023357492 0.09232533 -0.051700857 0.03594943
000320 fb 13 76 bc 57 60 a9 3c 49 29 3a bb e5 ad f1 3c
       -0.015019412 0.020675821 -0.0028405956 0.029501865
000330 ab 57 10 bd e2 00 5b bd 16 d7 63 3d d6 df a3 bd
       -0.035239857 -0.05346764 0.055625044 -0.08001678
000340 c1 dd 12 3d 9f 5c 19 3e 60 cf 05 3c e3 8e 85 3d
       0.035856012 0.14976738 0.008167118 0.06521394
000350 f6 62 db bb 4d 0a ba 3d b9 9f 50 3d ab 9f 12 3d
       -0.0066951467 0.09083996 0.050933573 0.035796802
000360 f2 4b c2 bd 94 84 4f bd 37 1a c6 bd 0f 41 24 bd
       -0.09487142 -0.050663546 -0.09672969 -0.040101107
000370 09 d8 e9 bc 62 13 06 38 fb f2 45 bd 56 99 24 bc
       -0.028545396 3.196614e-05 -0.048327427 -0.010046324
000380 8b 7b f6 3c 09 63 3e bb 01 31 3f bd 7c e1 d1 bc
       0.030088207 -0.0029050729 -0.046677593 -0.025620215
000390 3b bd 17 bd 0e a9 13 bd 46 3f 0a 3d 74 ed 12 bd
       -0.0370457 -0.036049895 0.03375175 -0.035870984
0003a0 91 63 5c bc 09 59 b1 bd 41 3b bd bd 08 47 b4 bd
       -0.013451473 -0.0865956 -0.092398174 -0.08802611
0003b0 28 68 db 3d 89 ec d3 3d 4c f3 19 bd d5 6f 28 bd
       0.107132256 0.1034785 -0.03758554 -0.041122276
0003c0 8f 55 1a 3d 1b 00 ba 3d 77 2d 76 bc f2 4c 0d 3d
       0.03767925 0.09082051 -0.015025488 0.03449721
0003d0 37 20 98 3c af f2 b3 bd 49 d9 94 bd 0c f5 95 bd
       0.018570049 -0.087865226 -0.07268006 -0.073221296
0003e0 19 5e d8 3a e4 07 62 3c 3b 6d 88 3d 96 24 a3 bd
       0.0016507535 0.013795827 0.06661459 -0.079659626
0003f0 d8 16 78 3d 61 b7 8c ba 76 0b ee 3d e3 3e 89 bd
       0.06056866 -0.0010735804 0.1162328 -0.06701448
